…
TrainData Input:  batchSize=8, depth=1, height=281, width=281, NumClassfication=2

TestData Input:  batchSize=8, depth=1, height=281, width=281, NumClassfication=2

Info: program uses Mixup with alpha=0.4, and mixupProb = 0.5.
Network trains from scratch.
Network has total 171750770 parameters.
Infor: Cross Entropy Weight: [1.0260619741432382, 39.37007874015748]

====================Net Architecture===========================
----------------------------------------------------------------
        Layer (type)               Output Shape         Param #
================================================================
            Conv2d-1        [-1, 112, 281, 281]           1,120
       BatchNorm2d-2        [-1, 112, 281, 281]             224
              ReLU-3        [-1, 112, 281, 281]               0
    BN_ReLU_Conv2d-4        [-1, 112, 281, 281]               0
            Conv2d-5        [-1, 112, 281, 281]          12,656
       BatchNorm2d-6        [-1, 112, 281, 281]             224
              ReLU-7        [-1, 112, 281, 281]               0
    BN_ReLU_Conv2d-8        [-1, 112, 281, 281]               0
            Conv2d-9         [-1, 28, 281, 281]          28,252
      BatchNorm2d-10         [-1, 28, 281, 281]              56
             ReLU-11         [-1, 28, 281, 281]               0
   BN_ReLU_Conv2d-12         [-1, 28, 281, 281]               0
           Conv2d-13        [-1, 112, 281, 281]          15,792
      BatchNorm2d-14        [-1, 112, 281, 281]             224
             ReLU-15        [-1, 112, 281, 281]               0
   BN_ReLU_Conv2d-16        [-1, 112, 281, 281]               0
           Conv2d-17         [-1, 28, 281, 281]          28,252
      BatchNorm2d-18         [-1, 28, 281, 281]              56
             ReLU-19         [-1, 28, 281, 281]               0
   BN_ReLU_Conv2d-20         [-1, 28, 281, 281]               0
           Conv2d-21        [-1, 112, 281, 281]          18,928
      BatchNorm2d-22        [-1, 112, 281, 281]             224
             ReLU-23        [-1, 112, 281, 281]               0
   BN_ReLU_Conv2d-24        [-1, 112, 281, 281]               0
           Conv2d-25         [-1, 28, 281, 281]          28,252
      BatchNorm2d-26         [-1, 28, 281, 281]              56
             ReLU-27         [-1, 28, 281, 281]               0
   BN_ReLU_Conv2d-28         [-1, 28, 281, 281]               0
           Conv2d-29        [-1, 112, 281, 281]          22,064
      BatchNorm2d-30        [-1, 112, 281, 281]             224
             ReLU-31        [-1, 112, 281, 281]               0
   BN_ReLU_Conv2d-32        [-1, 112, 281, 281]               0
           Conv2d-33         [-1, 28, 281, 281]          28,252
      BatchNorm2d-34         [-1, 28, 281, 281]              56
             ReLU-35         [-1, 28, 281, 281]               0
   BN_ReLU_Conv2d-36         [-1, 28, 281, 281]               0
           Conv2d-37        [-1, 112, 281, 281]          25,200
      BatchNorm2d-38        [-1, 112, 281, 281]             224
             ReLU-39        [-1, 112, 281, 281]               0
   BN_ReLU_Conv2d-40        [-1, 112, 281, 281]               0
        ConvDense-41        [-1, 112, 281, 281]               0
ConvBuildingBlock-42        [-1, 112, 281, 281]               0
        ConvInput-43        [-1, 112, 281, 281]               0
           Conv2d-44        [-1, 112, 139, 139]         313,712
      BatchNorm2d-45        [-1, 112, 139, 139]             224
             ReLU-46        [-1, 112, 139, 139]               0
   BN_ReLU_Conv2d-47        [-1, 112, 139, 139]               0
           Conv2d-48        [-1, 112, 139, 139]          12,656
      BatchNorm2d-49        [-1, 112, 139, 139]             224
             ReLU-50        [-1, 112, 139, 139]               0
   BN_ReLU_Conv2d-51        [-1, 112, 139, 139]               0
           Conv2d-52         [-1, 28, 139, 139]          28,252
      BatchNorm2d-53         [-1, 28, 139, 139]              56
             ReLU-54         [-1, 28, 139, 139]               0
   BN_ReLU_Conv2d-55         [-1, 28, 139, 139]               0
           Conv2d-56        [-1, 112, 139, 139]          15,792
      BatchNorm2d-57        [-1, 112, 139, 139]             224
             ReLU-58        [-1, 112, 139, 139]               0
   BN_ReLU_Conv2d-59        [-1, 112, 139, 139]               0
           Conv2d-60         [-1, 28, 139, 139]          28,252
      BatchNorm2d-61         [-1, 28, 139, 139]              56
             ReLU-62         [-1, 28, 139, 139]               0
   BN_ReLU_Conv2d-63         [-1, 28, 139, 139]               0
           Conv2d-64        [-1, 112, 139, 139]          18,928
      BatchNorm2d-65        [-1, 112, 139, 139]             224
             ReLU-66        [-1, 112, 139, 139]               0
   BN_ReLU_Conv2d-67        [-1, 112, 139, 139]               0
           Conv2d-68         [-1, 28, 139, 139]          28,252
      BatchNorm2d-69         [-1, 28, 139, 139]              56
             ReLU-70         [-1, 28, 139, 139]               0
   BN_ReLU_Conv2d-71         [-1, 28, 139, 139]               0
           Conv2d-72        [-1, 112, 139, 139]          22,064
      BatchNorm2d-73        [-1, 112, 139, 139]             224
             ReLU-74        [-1, 112, 139, 139]               0
   BN_ReLU_Conv2d-75        [-1, 112, 139, 139]               0
           Conv2d-76         [-1, 28, 139, 139]          28,252
      BatchNorm2d-77         [-1, 28, 139, 139]              56
             ReLU-78         [-1, 28, 139, 139]               0
   BN_ReLU_Conv2d-79         [-1, 28, 139, 139]               0
           Conv2d-80        [-1, 112, 139, 139]          25,200
      BatchNorm2d-81        [-1, 112, 139, 139]             224
             ReLU-82        [-1, 112, 139, 139]               0
   BN_ReLU_Conv2d-83        [-1, 112, 139, 139]               0
        ConvDense-84        [-1, 112, 139, 139]               0
ConvBuildingBlock-85        [-1, 112, 139, 139]               0
         Down2dBB-86        [-1, 112, 139, 139]               0
           Conv2d-87          [-1, 224, 69, 69]         226,016
      BatchNorm2d-88          [-1, 224, 69, 69]             448
             ReLU-89          [-1, 224, 69, 69]               0
   BN_ReLU_Conv2d-90          [-1, 224, 69, 69]               0
           Conv2d-91          [-1, 224, 69, 69]          50,400
      BatchNorm2d-92          [-1, 224, 69, 69]             448
             ReLU-93          [-1, 224, 69, 69]               0
   BN_ReLU_Conv2d-94          [-1, 224, 69, 69]               0
           Conv2d-95           [-1, 56, 69, 69]         112,952
      BatchNorm2d-96           [-1, 56, 69, 69]             112
             ReLU-97           [-1, 56, 69, 69]               0
   BN_ReLU_Conv2d-98           [-1, 56, 69, 69]               0
           Conv2d-99          [-1, 224, 69, 69]          62,944
     BatchNorm2d-100          [-1, 224, 69, 69]             448
            ReLU-101          [-1, 224, 69, 69]               0
  BN_ReLU_Conv2d-102          [-1, 224, 69, 69]               0
          Conv2d-103           [-1, 56, 69, 69]         112,952
     BatchNorm2d-104           [-1, 56, 69, 69]             112
            ReLU-105           [-1, 56, 69, 69]               0
  BN_ReLU_Conv2d-106           [-1, 56, 69, 69]               0
          Conv2d-107          [-1, 224, 69, 69]          75,488
     BatchNorm2d-108          [-1, 224, 69, 69]             448
            ReLU-109          [-1, 224, 69, 69]               0
  BN_ReLU_Conv2d-110          [-1, 224, 69, 69]               0
          Conv2d-111           [-1, 56, 69, 69]         112,952
     BatchNorm2d-112           [-1, 56, 69, 69]             112
            ReLU-113           [-1, 56, 69, 69]               0
  BN_ReLU_Conv2d-114           [-1, 56, 69, 69]               0
          Conv2d-115          [-1, 224, 69, 69]          88,032
     BatchNorm2d-116          [-1, 224, 69, 69]             448
            ReLU-117          [-1, 224, 69, 69]               0
  BN_ReLU_Conv2d-118          [-1, 224, 69, 69]               0
          Conv2d-119           [-1, 56, 69, 69]         112,952
     BatchNorm2d-120           [-1, 56, 69, 69]             112
            ReLU-121           [-1, 56, 69, 69]               0
  BN_ReLU_Conv2d-122           [-1, 56, 69, 69]               0
          Conv2d-123          [-1, 224, 69, 69]         100,576
     BatchNorm2d-124          [-1, 224, 69, 69]             448
            ReLU-125          [-1, 224, 69, 69]               0
  BN_ReLU_Conv2d-126          [-1, 224, 69, 69]               0
       ConvDense-127          [-1, 224, 69, 69]               0
ConvBuildingBlock-128          [-1, 224, 69, 69]               0
        Down2dBB-129          [-1, 224, 69, 69]               0
          Conv2d-130          [-1, 448, 33, 33]       2,509,248
     BatchNorm2d-131          [-1, 448, 33, 33]             896
            ReLU-132          [-1, 448, 33, 33]               0
  BN_ReLU_Conv2d-133          [-1, 448, 33, 33]               0
          Conv2d-134          [-1, 448, 33, 33]         201,152
     BatchNorm2d-135          [-1, 448, 33, 33]             896
            ReLU-136          [-1, 448, 33, 33]               0
  BN_ReLU_Conv2d-137          [-1, 448, 33, 33]               0
          Conv2d-138          [-1, 112, 33, 33]         451,696
     BatchNorm2d-139          [-1, 112, 33, 33]             224
            ReLU-140          [-1, 112, 33, 33]               0
  BN_ReLU_Conv2d-141          [-1, 112, 33, 33]               0
          Conv2d-142          [-1, 448, 33, 33]         251,328
     BatchNorm2d-143          [-1, 448, 33, 33]             896
            ReLU-144          [-1, 448, 33, 33]               0
  BN_ReLU_Conv2d-145          [-1, 448, 33, 33]               0
          Conv2d-146          [-1, 112, 33, 33]         451,696
     BatchNorm2d-147          [-1, 112, 33, 33]             224
            ReLU-148          [-1, 112, 33, 33]               0
  BN_ReLU_Conv2d-149          [-1, 112, 33, 33]               0
          Conv2d-150          [-1, 448, 33, 33]         301,504
     BatchNorm2d-151          [-1, 448, 33, 33]             896
            ReLU-152          [-1, 448, 33, 33]               0
  BN_ReLU_Conv2d-153          [-1, 448, 33, 33]               0
          Conv2d-154          [-1, 112, 33, 33]         451,696
     BatchNorm2d-155          [-1, 112, 33, 33]             224
            ReLU-156          [-1, 112, 33, 33]               0
  BN_ReLU_Conv2d-157          [-1, 112, 33, 33]               0
          Conv2d-158          [-1, 448, 33, 33]         351,680
     BatchNorm2d-159          [-1, 448, 33, 33]             896
            ReLU-160          [-1, 448, 33, 33]               0
  BN_ReLU_Conv2d-161          [-1, 448, 33, 33]               0
          Conv2d-162          [-1, 112, 33, 33]         451,696
     BatchNorm2d-163          [-1, 112, 33, 33]             224
            ReLU-164          [-1, 112, 33, 33]               0
  BN_ReLU_Conv2d-165          [-1, 112, 33, 33]               0
          Conv2d-166          [-1, 448, 33, 33]         401,856
     BatchNorm2d-167          [-1, 448, 33, 33]             896
            ReLU-168          [-1, 448, 33, 33]               0
  BN_ReLU_Conv2d-169          [-1, 448, 33, 33]               0
       ConvDense-170          [-1, 448, 33, 33]               0
ConvBuildingBlock-171          [-1, 448, 33, 33]               0
        Down2dBB-172          [-1, 448, 33, 33]               0
          Conv2d-173          [-1, 896, 15, 15]      10,036,096
     BatchNorm2d-174          [-1, 896, 15, 15]           1,792
            ReLU-175          [-1, 896, 15, 15]               0
  BN_ReLU_Conv2d-176          [-1, 896, 15, 15]               0
          Conv2d-177          [-1, 896, 15, 15]         803,712
     BatchNorm2d-178          [-1, 896, 15, 15]           1,792
            ReLU-179          [-1, 896, 15, 15]               0
  BN_ReLU_Conv2d-180          [-1, 896, 15, 15]               0
          Conv2d-181          [-1, 224, 15, 15]       1,806,560
     BatchNorm2d-182          [-1, 224, 15, 15]             448
            ReLU-183          [-1, 224, 15, 15]               0
  BN_ReLU_Conv2d-184          [-1, 224, 15, 15]               0
          Conv2d-185          [-1, 896, 15, 15]       1,004,416
     BatchNorm2d-186          [-1, 896, 15, 15]           1,792
            ReLU-187          [-1, 896, 15, 15]               0
  BN_ReLU_Conv2d-188          [-1, 896, 15, 15]               0
          Conv2d-189          [-1, 224, 15, 15]       1,806,560
     BatchNorm2d-190          [-1, 224, 15, 15]             448
            ReLU-191          [-1, 224, 15, 15]               0
  BN_ReLU_Conv2d-192          [-1, 224, 15, 15]               0
          Conv2d-193          [-1, 896, 15, 15]       1,205,120
     BatchNorm2d-194          [-1, 896, 15, 15]           1,792
            ReLU-195          [-1, 896, 15, 15]               0
  BN_ReLU_Conv2d-196          [-1, 896, 15, 15]               0
          Conv2d-197          [-1, 224, 15, 15]       1,806,560
     BatchNorm2d-198          [-1, 224, 15, 15]             448
            ReLU-199          [-1, 224, 15, 15]               0
  BN_ReLU_Conv2d-200          [-1, 224, 15, 15]               0
          Conv2d-201          [-1, 896, 15, 15]       1,405,824
     BatchNorm2d-202          [-1, 896, 15, 15]           1,792
            ReLU-203          [-1, 896, 15, 15]               0
  BN_ReLU_Conv2d-204          [-1, 896, 15, 15]               0
          Conv2d-205          [-1, 224, 15, 15]       1,806,560
     BatchNorm2d-206          [-1, 224, 15, 15]             448
            ReLU-207          [-1, 224, 15, 15]               0
  BN_ReLU_Conv2d-208          [-1, 224, 15, 15]               0
          Conv2d-209          [-1, 896, 15, 15]       1,606,528
     BatchNorm2d-210          [-1, 896, 15, 15]           1,792
            ReLU-211          [-1, 896, 15, 15]               0
  BN_ReLU_Conv2d-212          [-1, 896, 15, 15]               0
       ConvDense-213          [-1, 896, 15, 15]               0
ConvBuildingBlock-214          [-1, 896, 15, 15]               0
        Down2dBB-215          [-1, 896, 15, 15]               0
          Conv2d-216           [-1, 1792, 7, 7]      14,452,480
     BatchNorm2d-217           [-1, 1792, 7, 7]           3,584
            ReLU-218           [-1, 1792, 7, 7]               0
  BN_ReLU_Conv2d-219           [-1, 1792, 7, 7]               0
          Conv2d-220           [-1, 1792, 7, 7]       3,213,056
     BatchNorm2d-221           [-1, 1792, 7, 7]           3,584
            ReLU-222           [-1, 1792, 7, 7]               0
  BN_ReLU_Conv2d-223           [-1, 1792, 7, 7]               0
          Conv2d-224            [-1, 448, 7, 7]       7,225,792
     BatchNorm2d-225            [-1, 448, 7, 7]             896
            ReLU-226            [-1, 448, 7, 7]               0
  BN_ReLU_Conv2d-227            [-1, 448, 7, 7]               0
          Conv2d-228           [-1, 1792, 7, 7]       4,015,872
     BatchNorm2d-229           [-1, 1792, 7, 7]           3,584
            ReLU-230           [-1, 1792, 7, 7]               0
  BN_ReLU_Conv2d-231           [-1, 1792, 7, 7]               0
          Conv2d-232            [-1, 448, 7, 7]       7,225,792
     BatchNorm2d-233            [-1, 448, 7, 7]             896
            ReLU-234            [-1, 448, 7, 7]               0
  BN_ReLU_Conv2d-235            [-1, 448, 7, 7]               0
          Conv2d-236           [-1, 1792, 7, 7]       4,818,688
     BatchNorm2d-237           [-1, 1792, 7, 7]           3,584
            ReLU-238           [-1, 1792, 7, 7]               0
  BN_ReLU_Conv2d-239           [-1, 1792, 7, 7]               0
          Conv2d-240            [-1, 448, 7, 7]       7,225,792
     BatchNorm2d-241            [-1, 448, 7, 7]             896
            ReLU-242            [-1, 448, 7, 7]               0
  BN_ReLU_Conv2d-243            [-1, 448, 7, 7]               0
          Conv2d-244           [-1, 1792, 7, 7]       5,621,504
     BatchNorm2d-245           [-1, 1792, 7, 7]           3,584
            ReLU-246           [-1, 1792, 7, 7]               0
  BN_ReLU_Conv2d-247           [-1, 1792, 7, 7]               0
          Conv2d-248            [-1, 448, 7, 7]       7,225,792
     BatchNorm2d-249            [-1, 448, 7, 7]             896
            ReLU-250            [-1, 448, 7, 7]               0
  BN_ReLU_Conv2d-251            [-1, 448, 7, 7]               0
          Conv2d-252           [-1, 1792, 7, 7]       6,424,320
     BatchNorm2d-253           [-1, 1792, 7, 7]           3,584
            ReLU-254           [-1, 1792, 7, 7]               0
  BN_ReLU_Conv2d-255           [-1, 1792, 7, 7]               0
       ConvDense-256           [-1, 1792, 7, 7]               0
ConvBuildingBlock-257           [-1, 1792, 7, 7]               0
        Down2dBB-258           [-1, 1792, 7, 7]               0
 ConvTranspose2d-259          [-1, 896, 15, 15]      14,451,584
     BatchNorm2d-260          [-1, 896, 15, 15]           1,792
            ReLU-261          [-1, 896, 15, 15]               0
 BN_ReLU_ConvT2d-262          [-1, 896, 15, 15]               0
          Conv2d-263          [-1, 896, 15, 15]         803,712
     BatchNorm2d-264          [-1, 896, 15, 15]           1,792
            ReLU-265          [-1, 896, 15, 15]               0
  BN_ReLU_Conv2d-266          [-1, 896, 15, 15]               0
          Conv2d-267          [-1, 224, 15, 15]       1,806,560
     BatchNorm2d-268          [-1, 224, 15, 15]             448
            ReLU-269          [-1, 224, 15, 15]               0
  BN_ReLU_Conv2d-270          [-1, 224, 15, 15]               0
          Conv2d-271          [-1, 896, 15, 15]       1,004,416
     BatchNorm2d-272          [-1, 896, 15, 15]           1,792
            ReLU-273          [-1, 896, 15, 15]               0
  BN_ReLU_Conv2d-274          [-1, 896, 15, 15]               0
          Conv2d-275          [-1, 224, 15, 15]       1,806,560
     BatchNorm2d-276          [-1, 224, 15, 15]             448
            ReLU-277          [-1, 224, 15, 15]               0
  BN_ReLU_Conv2d-278          [-1, 224, 15, 15]               0
          Conv2d-279          [-1, 896, 15, 15]       1,205,120
     BatchNorm2d-280          [-1, 896, 15, 15]           1,792
            ReLU-281          [-1, 896, 15, 15]               0
  BN_ReLU_Conv2d-282          [-1, 896, 15, 15]               0
          Conv2d-283          [-1, 224, 15, 15]       1,806,560
     BatchNorm2d-284          [-1, 224, 15, 15]             448
            ReLU-285          [-1, 224, 15, 15]               0
  BN_ReLU_Conv2d-286          [-1, 224, 15, 15]               0
          Conv2d-287          [-1, 896, 15, 15]       1,405,824
     BatchNorm2d-288          [-1, 896, 15, 15]           1,792
            ReLU-289          [-1, 896, 15, 15]               0
  BN_ReLU_Conv2d-290          [-1, 896, 15, 15]               0
          Conv2d-291          [-1, 224, 15, 15]       1,806,560
     BatchNorm2d-292          [-1, 224, 15, 15]             448
            ReLU-293          [-1, 224, 15, 15]               0
  BN_ReLU_Conv2d-294          [-1, 224, 15, 15]               0
          Conv2d-295          [-1, 896, 15, 15]       1,606,528
     BatchNorm2d-296          [-1, 896, 15, 15]           1,792
            ReLU-297          [-1, 896, 15, 15]               0
  BN_ReLU_Conv2d-298          [-1, 896, 15, 15]               0
       ConvDense-299          [-1, 896, 15, 15]               0
ConvBuildingBlock-300          [-1, 896, 15, 15]               0
          Up2dBB-301          [-1, 896, 15, 15]               0
          Conv2d-302          [-1, 896, 15, 15]       7,226,240
     BatchNorm2d-303          [-1, 896, 15, 15]           1,792
            ReLU-304          [-1, 896, 15, 15]               0
  BN_ReLU_Conv2d-305          [-1, 896, 15, 15]               0
          Conv2d-306          [-1, 896, 15, 15]         803,712
     BatchNorm2d-307          [-1, 896, 15, 15]           1,792
            ReLU-308          [-1, 896, 15, 15]               0
  BN_ReLU_Conv2d-309          [-1, 896, 15, 15]               0
Conv33_11Residual-310          [-1, 896, 15, 15]               0
         ResPath-311          [-1, 896, 15, 15]               0
 ConvTranspose2d-312          [-1, 448, 33, 33]      20,070,848
     BatchNorm2d-313          [-1, 448, 33, 33]             896
            ReLU-314          [-1, 448, 33, 33]               0
 BN_ReLU_ConvT2d-315          [-1, 448, 33, 33]               0
          Conv2d-316          [-1, 448, 33, 33]         201,152
     BatchNorm2d-317          [-1, 448, 33, 33]             896
            ReLU-318          [-1, 448, 33, 33]               0
  BN_ReLU_Conv2d-319          [-1, 448, 33, 33]               0
          Conv2d-320          [-1, 112, 33, 33]         451,696
     BatchNorm2d-321          [-1, 112, 33, 33]             224
            ReLU-322          [-1, 112, 33, 33]               0
  BN_ReLU_Conv2d-323          [-1, 112, 33, 33]               0
          Conv2d-324          [-1, 448, 33, 33]         251,328
     BatchNorm2d-325          [-1, 448, 33, 33]             896
            ReLU-326          [-1, 448, 33, 33]               0
  BN_ReLU_Conv2d-327          [-1, 448, 33, 33]               0
          Conv2d-328          [-1, 112, 33, 33]         451,696
     BatchNorm2d-329          [-1, 112, 33, 33]             224
            ReLU-330          [-1, 112, 33, 33]               0
  BN_ReLU_Conv2d-331          [-1, 112, 33, 33]               0
          Conv2d-332          [-1, 448, 33, 33]         301,504
     BatchNorm2d-333          [-1, 448, 33, 33]             896
            ReLU-334          [-1, 448, 33, 33]               0
  BN_ReLU_Conv2d-335          [-1, 448, 33, 33]               0
          Conv2d-336          [-1, 112, 33, 33]         451,696
     BatchNorm2d-337          [-1, 112, 33, 33]             224
            ReLU-338          [-1, 112, 33, 33]               0
  BN_ReLU_Conv2d-339          [-1, 112, 33, 33]               0
          Conv2d-340          [-1, 448, 33, 33]         351,680
     BatchNorm2d-341          [-1, 448, 33, 33]             896
            ReLU-342          [-1, 448, 33, 33]               0
  BN_ReLU_Conv2d-343          [-1, 448, 33, 33]               0
          Conv2d-344          [-1, 112, 33, 33]         451,696
     BatchNorm2d-345          [-1, 112, 33, 33]             224
            ReLU-346          [-1, 112, 33, 33]               0
  BN_ReLU_Conv2d-347          [-1, 112, 33, 33]               0
          Conv2d-348          [-1, 448, 33, 33]         401,856
     BatchNorm2d-349          [-1, 448, 33, 33]             896
            ReLU-350          [-1, 448, 33, 33]               0
  BN_ReLU_Conv2d-351          [-1, 448, 33, 33]               0
       ConvDense-352          [-1, 448, 33, 33]               0
ConvBuildingBlock-353          [-1, 448, 33, 33]               0
          Up2dBB-354          [-1, 448, 33, 33]               0
          Conv2d-355          [-1, 448, 33, 33]       1,806,784
     BatchNorm2d-356          [-1, 448, 33, 33]             896
            ReLU-357          [-1, 448, 33, 33]               0
  BN_ReLU_Conv2d-358          [-1, 448, 33, 33]               0
          Conv2d-359          [-1, 448, 33, 33]         201,152
     BatchNorm2d-360          [-1, 448, 33, 33]             896
            ReLU-361          [-1, 448, 33, 33]               0
  BN_ReLU_Conv2d-362          [-1, 448, 33, 33]               0
Conv33_11Residual-363          [-1, 448, 33, 33]               0
          Conv2d-364          [-1, 448, 33, 33]       1,806,784
     BatchNorm2d-365          [-1, 448, 33, 33]             896
            ReLU-366          [-1, 448, 33, 33]               0
  BN_ReLU_Conv2d-367          [-1, 448, 33, 33]               0
          Conv2d-368          [-1, 448, 33, 33]         201,152
     BatchNorm2d-369          [-1, 448, 33, 33]             896
            ReLU-370          [-1, 448, 33, 33]               0
  BN_ReLU_Conv2d-371          [-1, 448, 33, 33]               0
Conv33_11Residual-372          [-1, 448, 33, 33]               0
         ResPath-373          [-1, 448, 33, 33]               0
 ConvTranspose2d-374          [-1, 224, 69, 69]       5,017,824
     BatchNorm2d-375          [-1, 224, 69, 69]             448
            ReLU-376          [-1, 224, 69, 69]               0
 BN_ReLU_ConvT2d-377          [-1, 224, 69, 69]               0
          Conv2d-378          [-1, 224, 69, 69]          50,400
     BatchNorm2d-379          [-1, 224, 69, 69]             448
            ReLU-380          [-1, 224, 69, 69]               0
  BN_ReLU_Conv2d-381          [-1, 224, 69, 69]               0
          Conv2d-382           [-1, 56, 69, 69]         112,952
     BatchNorm2d-383           [-1, 56, 69, 69]             112
            ReLU-384           [-1, 56, 69, 69]               0
  BN_ReLU_Conv2d-385           [-1, 56, 69, 69]               0
          Conv2d-386          [-1, 224, 69, 69]          62,944
     BatchNorm2d-387          [-1, 224, 69, 69]             448
            ReLU-388          [-1, 224, 69, 69]               0
  BN_ReLU_Conv2d-389          [-1, 224, 69, 69]               0
          Conv2d-390           [-1, 56, 69, 69]         112,952
     BatchNorm2d-391           [-1, 56, 69, 69]             112
            ReLU-392           [-1, 56, 69, 69]               0
  BN_ReLU_Conv2d-393           [-1, 56, 69, 69]               0
          Conv2d-394          [-1, 224, 69, 69]          75,488
     BatchNorm2d-395          [-1, 224, 69, 69]             448
            ReLU-396          [-1, 224, 69, 69]               0
  BN_ReLU_Conv2d-397          [-1, 224, 69, 69]               0
          Conv2d-398           [-1, 56, 69, 69]         112,952
     BatchNorm2d-399           [-1, 56, 69, 69]             112
            ReLU-400           [-1, 56, 69, 69]               0
  BN_ReLU_Conv2d-401           [-1, 56, 69, 69]               0
          Conv2d-402          [-1, 224, 69, 69]          88,032
     BatchNorm2d-403          [-1, 224, 69, 69]             448
            ReLU-404          [-1, 224, 69, 69]               0
  BN_ReLU_Conv2d-405          [-1, 224, 69, 69]               0
          Conv2d-406           [-1, 56, 69, 69]         112,952
     BatchNorm2d-407           [-1, 56, 69, 69]             112
            ReLU-408           [-1, 56, 69, 69]               0
  BN_ReLU_Conv2d-409           [-1, 56, 69, 69]               0
          Conv2d-410          [-1, 224, 69, 69]         100,576
     BatchNorm2d-411          [-1, 224, 69, 69]             448
            ReLU-412          [-1, 224, 69, 69]               0
  BN_ReLU_Conv2d-413          [-1, 224, 69, 69]               0
       ConvDense-414          [-1, 224, 69, 69]               0
ConvBuildingBlock-415          [-1, 224, 69, 69]               0
          Up2dBB-416          [-1, 224, 69, 69]               0
          Conv2d-417          [-1, 224, 69, 69]         451,808
     BatchNorm2d-418          [-1, 224, 69, 69]             448
            ReLU-419          [-1, 224, 69, 69]               0
  BN_ReLU_Conv2d-420          [-1, 224, 69, 69]               0
          Conv2d-421          [-1, 224, 69, 69]          50,400
     BatchNorm2d-422          [-1, 224, 69, 69]             448
            ReLU-423          [-1, 224, 69, 69]               0
  BN_ReLU_Conv2d-424          [-1, 224, 69, 69]               0
Conv33_11Residual-425          [-1, 224, 69, 69]               0
          Conv2d-426          [-1, 224, 69, 69]         451,808
     BatchNorm2d-427          [-1, 224, 69, 69]             448
            ReLU-428          [-1, 224, 69, 69]               0
  BN_ReLU_Conv2d-429          [-1, 224, 69, 69]               0
          Conv2d-430          [-1, 224, 69, 69]          50,400
     BatchNorm2d-431          [-1, 224, 69, 69]             448
            ReLU-432          [-1, 224, 69, 69]               0
  BN_ReLU_Conv2d-433          [-1, 224, 69, 69]               0
Conv33_11Residual-434          [-1, 224, 69, 69]               0
          Conv2d-435          [-1, 224, 69, 69]         451,808
     BatchNorm2d-436          [-1, 224, 69, 69]             448
            ReLU-437          [-1, 224, 69, 69]               0
  BN_ReLU_Conv2d-438          [-1, 224, 69, 69]               0
          Conv2d-439          [-1, 224, 69, 69]          50,400
     BatchNorm2d-440          [-1, 224, 69, 69]             448
            ReLU-441          [-1, 224, 69, 69]               0
  BN_ReLU_Conv2d-442          [-1, 224, 69, 69]               0
Conv33_11Residual-443          [-1, 224, 69, 69]               0
         ResPath-444          [-1, 224, 69, 69]               0
 ConvTranspose2d-445        [-1, 112, 139, 139]         451,696
     BatchNorm2d-446        [-1, 112, 139, 139]             224
            ReLU-447        [-1, 112, 139, 139]               0
 BN_ReLU_ConvT2d-448        [-1, 112, 139, 139]               0
          Conv2d-449        [-1, 112, 139, 139]          12,656
     BatchNorm2d-450        [-1, 112, 139, 139]             224
            ReLU-451        [-1, 112, 139, 139]               0
  BN_ReLU_Conv2d-452        [-1, 112, 139, 139]               0
          Conv2d-453         [-1, 28, 139, 139]          28,252
     BatchNorm2d-454         [-1, 28, 139, 139]              56
            ReLU-455         [-1, 28, 139, 139]               0
  BN_ReLU_Conv2d-456         [-1, 28, 139, 139]               0
          Conv2d-457        [-1, 112, 139, 139]          15,792
     BatchNorm2d-458        [-1, 112, 139, 139]             224
            ReLU-459        [-1, 112, 139, 139]               0
  BN_ReLU_Conv2d-460        [-1, 112, 139, 139]               0
          Conv2d-461         [-1, 28, 139, 139]          28,252
     BatchNorm2d-462         [-1, 28, 139, 139]              56
            ReLU-463         [-1, 28, 139, 139]               0
  BN_ReLU_Conv2d-464         [-1, 28, 139, 139]               0
          Conv2d-465        [-1, 112, 139, 139]          18,928
     BatchNorm2d-466        [-1, 112, 139, 139]             224
            ReLU-467        [-1, 112, 139, 139]               0
  BN_ReLU_Conv2d-468        [-1, 112, 139, 139]               0
          Conv2d-469         [-1, 28, 139, 139]          28,252
     BatchNorm2d-470         [-1, 28, 139, 139]              56
            ReLU-471         [-1, 28, 139, 139]               0
  BN_ReLU_Conv2d-472         [-1, 28, 139, 139]               0
          Conv2d-473        [-1, 112, 139, 139]          22,064
     BatchNorm2d-474        [-1, 112, 139, 139]             224
            ReLU-475        [-1, 112, 139, 139]               0
  BN_ReLU_Conv2d-476        [-1, 112, 139, 139]               0
          Conv2d-477         [-1, 28, 139, 139]          28,252
     BatchNorm2d-478         [-1, 28, 139, 139]              56
            ReLU-479         [-1, 28, 139, 139]               0
  BN_ReLU_Conv2d-480         [-1, 28, 139, 139]               0
          Conv2d-481        [-1, 112, 139, 139]          25,200
     BatchNorm2d-482        [-1, 112, 139, 139]             224
            ReLU-483        [-1, 112, 139, 139]               0
  BN_ReLU_Conv2d-484        [-1, 112, 139, 139]               0
       ConvDense-485        [-1, 112, 139, 139]               0
ConvBuildingBlock-486        [-1, 112, 139, 139]               0
          Up2dBB-487        [-1, 112, 139, 139]               0
          Conv2d-488        [-1, 112, 139, 139]         113,008
     BatchNorm2d-489        [-1, 112, 139, 139]             224
            ReLU-490        [-1, 112, 139, 139]               0
  BN_ReLU_Conv2d-491        [-1, 112, 139, 139]               0
          Conv2d-492        [-1, 112, 139, 139]          12,656
     BatchNorm2d-493        [-1, 112, 139, 139]             224
            ReLU-494        [-1, 112, 139, 139]               0
  BN_ReLU_Conv2d-495        [-1, 112, 139, 139]               0
Conv33_11Residual-496        [-1, 112, 139, 139]               0
          Conv2d-497        [-1, 112, 139, 139]         113,008
     BatchNorm2d-498        [-1, 112, 139, 139]             224
            ReLU-499        [-1, 112, 139, 139]               0
  BN_ReLU_Conv2d-500        [-1, 112, 139, 139]               0
          Conv2d-501        [-1, 112, 139, 139]          12,656
     BatchNorm2d-502        [-1, 112, 139, 139]             224
            ReLU-503        [-1, 112, 139, 139]               0
  BN_ReLU_Conv2d-504        [-1, 112, 139, 139]               0
Conv33_11Residual-505        [-1, 112, 139, 139]               0
          Conv2d-506        [-1, 112, 139, 139]         113,008
     BatchNorm2d-507        [-1, 112, 139, 139]             224
            ReLU-508        [-1, 112, 139, 139]               0
  BN_ReLU_Conv2d-509        [-1, 112, 139, 139]               0
          Conv2d-510        [-1, 112, 139, 139]          12,656
     BatchNorm2d-511        [-1, 112, 139, 139]             224
            ReLU-512        [-1, 112, 139, 139]               0
  BN_ReLU_Conv2d-513        [-1, 112, 139, 139]               0
Conv33_11Residual-514        [-1, 112, 139, 139]               0
          Conv2d-515        [-1, 112, 139, 139]         113,008
     BatchNorm2d-516        [-1, 112, 139, 139]             224
            ReLU-517        [-1, 112, 139, 139]               0
  BN_ReLU_Conv2d-518        [-1, 112, 139, 139]               0
          Conv2d-519        [-1, 112, 139, 139]          12,656
     BatchNorm2d-520        [-1, 112, 139, 139]             224
            ReLU-521        [-1, 112, 139, 139]               0
  BN_ReLU_Conv2d-522        [-1, 112, 139, 139]               0
Conv33_11Residual-523        [-1, 112, 139, 139]               0
         ResPath-524        [-1, 112, 139, 139]               0
 ConvTranspose2d-525        [-1, 112, 281, 281]         627,312
     BatchNorm2d-526        [-1, 112, 281, 281]             224
            ReLU-527        [-1, 112, 281, 281]               0
 BN_ReLU_ConvT2d-528        [-1, 112, 281, 281]               0
          Conv2d-529        [-1, 112, 281, 281]          12,656
     BatchNorm2d-530        [-1, 112, 281, 281]             224
            ReLU-531        [-1, 112, 281, 281]               0
  BN_ReLU_Conv2d-532        [-1, 112, 281, 281]               0
          Conv2d-533         [-1, 28, 281, 281]          28,252
     BatchNorm2d-534         [-1, 28, 281, 281]              56
            ReLU-535         [-1, 28, 281, 281]               0
  BN_ReLU_Conv2d-536         [-1, 28, 281, 281]               0
          Conv2d-537        [-1, 112, 281, 281]          15,792
     BatchNorm2d-538        [-1, 112, 281, 281]             224
            ReLU-539        [-1, 112, 281, 281]               0
  BN_ReLU_Conv2d-540        [-1, 112, 281, 281]               0
          Conv2d-541         [-1, 28, 281, 281]          28,252
     BatchNorm2d-542         [-1, 28, 281, 281]              56
            ReLU-543         [-1, 28, 281, 281]               0
  BN_ReLU_Conv2d-544         [-1, 28, 281, 281]               0
          Conv2d-545        [-1, 112, 281, 281]          18,928
     BatchNorm2d-546        [-1, 112, 281, 281]             224
            ReLU-547        [-1, 112, 281, 281]               0
  BN_ReLU_Conv2d-548        [-1, 112, 281, 281]               0
          Conv2d-549         [-1, 28, 281, 281]          28,252
     BatchNorm2d-550         [-1, 28, 281, 281]              56
            ReLU-551         [-1, 28, 281, 281]               0
  BN_ReLU_Conv2d-552         [-1, 28, 281, 281]               0
          Conv2d-553        [-1, 112, 281, 281]          22,064
     BatchNorm2d-554        [-1, 112, 281, 281]             224
            ReLU-555        [-1, 112, 281, 281]               0
  BN_ReLU_Conv2d-556        [-1, 112, 281, 281]               0
          Conv2d-557         [-1, 28, 281, 281]          28,252
     BatchNorm2d-558         [-1, 28, 281, 281]              56
            ReLU-559         [-1, 28, 281, 281]               0
  BN_ReLU_Conv2d-560         [-1, 28, 281, 281]               0
          Conv2d-561        [-1, 112, 281, 281]          25,200
     BatchNorm2d-562        [-1, 112, 281, 281]             224
            ReLU-563        [-1, 112, 281, 281]               0
  BN_ReLU_Conv2d-564        [-1, 112, 281, 281]               0
       ConvDense-565        [-1, 112, 281, 281]               0
ConvBuildingBlock-566        [-1, 112, 281, 281]               0
          Up2dBB-567        [-1, 112, 281, 281]               0
          Conv2d-568        [-1, 224, 281, 281]          50,400
     BatchNorm2d-569        [-1, 224, 281, 281]             448
            ReLU-570        [-1, 224, 281, 281]               0
  BN_ReLU_Conv2d-571        [-1, 224, 281, 281]               0
          Conv2d-572         [-1, 56, 281, 281]         112,952
     BatchNorm2d-573         [-1, 56, 281, 281]             112
            ReLU-574         [-1, 56, 281, 281]               0
  BN_ReLU_Conv2d-575         [-1, 56, 281, 281]               0
          Conv2d-576        [-1, 224, 281, 281]          62,944
     BatchNorm2d-577        [-1, 224, 281, 281]             448
            ReLU-578        [-1, 224, 281, 281]               0
  BN_ReLU_Conv2d-579        [-1, 224, 281, 281]               0
          Conv2d-580         [-1, 56, 281, 281]         112,952
     BatchNorm2d-581         [-1, 56, 281, 281]             112
            ReLU-582         [-1, 56, 281, 281]               0
  BN_ReLU_Conv2d-583         [-1, 56, 281, 281]               0
          Conv2d-584        [-1, 224, 281, 281]          75,488
     BatchNorm2d-585        [-1, 224, 281, 281]             448
            ReLU-586        [-1, 224, 281, 281]               0
  BN_ReLU_Conv2d-587        [-1, 224, 281, 281]               0
          Conv2d-588         [-1, 56, 281, 281]         112,952
     BatchNorm2d-589         [-1, 56, 281, 281]             112
            ReLU-590         [-1, 56, 281, 281]               0
  BN_ReLU_Conv2d-591         [-1, 56, 281, 281]               0
          Conv2d-592        [-1, 224, 281, 281]          88,032
     BatchNorm2d-593        [-1, 224, 281, 281]             448
            ReLU-594        [-1, 224, 281, 281]               0
  BN_ReLU_Conv2d-595        [-1, 224, 281, 281]               0
          Conv2d-596         [-1, 56, 281, 281]         112,952
     BatchNorm2d-597         [-1, 56, 281, 281]             112
            ReLU-598         [-1, 56, 281, 281]               0
  BN_ReLU_Conv2d-599         [-1, 56, 281, 281]               0
          Conv2d-600        [-1, 224, 281, 281]         100,576
     BatchNorm2d-601        [-1, 224, 281, 281]             448
            ReLU-602        [-1, 224, 281, 281]               0
  BN_ReLU_Conv2d-603        [-1, 224, 281, 281]               0
       ConvDense-604        [-1, 224, 281, 281]               0
ConvBuildingBlock-605        [-1, 224, 281, 281]               0
          Conv2d-606          [-1, 2, 281, 281]             450
      ConvOutput-607          [-1, 2, 281, 281]               0
================================================================
Total params: 171,750,322
Trainable params: 171,750,322
Non-trainable params: 0
----------------------------------------------------------------
Input size (MB): 0.30
Forward/backward pass size (MB): 10493.91
Params size (MB): 655.18
Estimated Total Size (MB): 11149.39
----------------------------------------------------------------
…
