…
TrainData Input:  batchSize=8, depth=1, height=281, width=281, NumClassfication=2

TestData Input:  batchSize=8, depth=1, height=281, width=281, NumClassfication=2

Network trains from scratch.
Network has total 51554754 parameters.
Info: network dropout rate = 0.3
Infor: Cross Entropy Weight: [1.0260619741432382, 39.37007874015748]

====================Net Architecture===========================
----------------------------------------------------------------
        Layer (type)               Output Shape         Param #
================================================================
            Conv2d-1         [-1, 64, 281, 281]             640
       BatchNorm2d-2         [-1, 64, 281, 281]             128
              ReLU-3         [-1, 64, 281, 281]               0
            Conv2d-4         [-1, 64, 281, 281]           4,160
       BatchNorm2d-5         [-1, 64, 281, 281]             128
              ReLU-6         [-1, 64, 281, 281]               0
            Conv2d-7         [-1, 16, 281, 281]           9,232
       BatchNorm2d-8         [-1, 80, 281, 281]             160
              ReLU-9         [-1, 80, 281, 281]               0
           Conv2d-10         [-1, 64, 281, 281]           5,184
      BatchNorm2d-11         [-1, 64, 281, 281]             128
             ReLU-12         [-1, 64, 281, 281]               0
           Conv2d-13         [-1, 16, 281, 281]           9,232
      BatchNorm2d-14         [-1, 96, 281, 281]             192
             ReLU-15         [-1, 96, 281, 281]               0
           Conv2d-16         [-1, 64, 281, 281]           6,208
      BatchNorm2d-17         [-1, 64, 281, 281]             128
             ReLU-18         [-1, 64, 281, 281]               0
           Conv2d-19         [-1, 16, 281, 281]           9,232
      BatchNorm2d-20        [-1, 112, 281, 281]             224
             ReLU-21        [-1, 112, 281, 281]               0
           Conv2d-22         [-1, 64, 281, 281]           7,232
      BatchNorm2d-23         [-1, 64, 281, 281]             128
             ReLU-24         [-1, 64, 281, 281]               0
           Conv2d-25         [-1, 16, 281, 281]           9,232
      BatchNorm2d-26        [-1, 128, 281, 281]             256
             ReLU-27        [-1, 128, 281, 281]               0
           Conv2d-28         [-1, 64, 281, 281]           8,256
        ConvDense-29         [-1, 64, 281, 281]               0
        ConvBlock-30         [-1, 64, 281, 281]               0
        ConvInput-31         [-1, 64, 281, 281]               0
      BatchNorm2d-32         [-1, 64, 281, 281]             128
           Conv2d-33         [-1, 64, 139, 139]         102,464
      BatchNorm2d-34         [-1, 64, 139, 139]             128
             ReLU-35         [-1, 64, 139, 139]               0
           Conv2d-36         [-1, 64, 139, 139]           4,160
      BatchNorm2d-37         [-1, 64, 139, 139]             128
             ReLU-38         [-1, 64, 139, 139]               0
           Conv2d-39         [-1, 16, 139, 139]           9,232
      BatchNorm2d-40         [-1, 80, 139, 139]             160
             ReLU-41         [-1, 80, 139, 139]               0
           Conv2d-42         [-1, 64, 139, 139]           5,184
      BatchNorm2d-43         [-1, 64, 139, 139]             128
             ReLU-44         [-1, 64, 139, 139]               0
           Conv2d-45         [-1, 16, 139, 139]           9,232
      BatchNorm2d-46         [-1, 96, 139, 139]             192
             ReLU-47         [-1, 96, 139, 139]               0
           Conv2d-48         [-1, 64, 139, 139]           6,208
      BatchNorm2d-49         [-1, 64, 139, 139]             128
             ReLU-50         [-1, 64, 139, 139]               0
           Conv2d-51         [-1, 16, 139, 139]           9,232
      BatchNorm2d-52        [-1, 112, 139, 139]             224
             ReLU-53        [-1, 112, 139, 139]               0
           Conv2d-54         [-1, 64, 139, 139]           7,232
      BatchNorm2d-55         [-1, 64, 139, 139]             128
             ReLU-56         [-1, 64, 139, 139]               0
           Conv2d-57         [-1, 16, 139, 139]           9,232
      BatchNorm2d-58        [-1, 128, 139, 139]             256
             ReLU-59        [-1, 128, 139, 139]               0
           Conv2d-60         [-1, 64, 139, 139]           8,256
        ConvDense-61         [-1, 64, 139, 139]               0
        ConvBlock-62         [-1, 64, 139, 139]               0
         Down2dBB-63         [-1, 64, 139, 139]               0
        Dropout2d-64         [-1, 64, 139, 139]               0
      BatchNorm2d-65         [-1, 64, 139, 139]             128
           Conv2d-66          [-1, 128, 69, 69]          73,856
      BatchNorm2d-67          [-1, 128, 69, 69]             256
             ReLU-68          [-1, 128, 69, 69]               0
           Conv2d-69          [-1, 128, 69, 69]          16,512
      BatchNorm2d-70          [-1, 128, 69, 69]             256
             ReLU-71          [-1, 128, 69, 69]               0
           Conv2d-72           [-1, 32, 69, 69]          36,896
      BatchNorm2d-73          [-1, 160, 69, 69]             320
             ReLU-74          [-1, 160, 69, 69]               0
           Conv2d-75          [-1, 128, 69, 69]          20,608
      BatchNorm2d-76          [-1, 128, 69, 69]             256
             ReLU-77          [-1, 128, 69, 69]               0
           Conv2d-78           [-1, 32, 69, 69]          36,896
      BatchNorm2d-79          [-1, 192, 69, 69]             384
             ReLU-80          [-1, 192, 69, 69]               0
           Conv2d-81          [-1, 128, 69, 69]          24,704
      BatchNorm2d-82          [-1, 128, 69, 69]             256
             ReLU-83          [-1, 128, 69, 69]               0
           Conv2d-84           [-1, 32, 69, 69]          36,896
      BatchNorm2d-85          [-1, 224, 69, 69]             448
             ReLU-86          [-1, 224, 69, 69]               0
           Conv2d-87          [-1, 128, 69, 69]          28,800
      BatchNorm2d-88          [-1, 128, 69, 69]             256
             ReLU-89          [-1, 128, 69, 69]               0
           Conv2d-90           [-1, 32, 69, 69]          36,896
      BatchNorm2d-91          [-1, 256, 69, 69]             512
             ReLU-92          [-1, 256, 69, 69]               0
           Conv2d-93          [-1, 128, 69, 69]          32,896
        ConvDense-94          [-1, 128, 69, 69]               0
        ConvBlock-95          [-1, 128, 69, 69]               0
         Down2dBB-96          [-1, 128, 69, 69]               0
        Dropout2d-97          [-1, 128, 69, 69]               0
      BatchNorm2d-98          [-1, 128, 69, 69]             256
           Conv2d-99          [-1, 256, 33, 33]         819,456
     BatchNorm2d-100          [-1, 256, 33, 33]             512
            ReLU-101          [-1, 256, 33, 33]               0
          Conv2d-102          [-1, 256, 33, 33]          65,792
     BatchNorm2d-103          [-1, 256, 33, 33]             512
            ReLU-104          [-1, 256, 33, 33]               0
          Conv2d-105           [-1, 64, 33, 33]         147,520
     BatchNorm2d-106          [-1, 320, 33, 33]             640
            ReLU-107          [-1, 320, 33, 33]               0
          Conv2d-108          [-1, 256, 33, 33]          82,176
     BatchNorm2d-109          [-1, 256, 33, 33]             512
            ReLU-110          [-1, 256, 33, 33]               0
          Conv2d-111           [-1, 64, 33, 33]         147,520
     BatchNorm2d-112          [-1, 384, 33, 33]             768
            ReLU-113          [-1, 384, 33, 33]               0
          Conv2d-114          [-1, 256, 33, 33]          98,560
     BatchNorm2d-115          [-1, 256, 33, 33]             512
            ReLU-116          [-1, 256, 33, 33]               0
          Conv2d-117           [-1, 64, 33, 33]         147,520
     BatchNorm2d-118          [-1, 448, 33, 33]             896
            ReLU-119          [-1, 448, 33, 33]               0
          Conv2d-120          [-1, 256, 33, 33]         114,944
     BatchNorm2d-121          [-1, 256, 33, 33]             512
            ReLU-122          [-1, 256, 33, 33]               0
          Conv2d-123           [-1, 64, 33, 33]         147,520
     BatchNorm2d-124          [-1, 512, 33, 33]           1,024
            ReLU-125          [-1, 512, 33, 33]               0
          Conv2d-126          [-1, 256, 33, 33]         131,328
       ConvDense-127          [-1, 256, 33, 33]               0
       ConvBlock-128          [-1, 256, 33, 33]               0
        Down2dBB-129          [-1, 256, 33, 33]               0
       Dropout2d-130          [-1, 256, 33, 33]               0
     BatchNorm2d-131          [-1, 256, 33, 33]             512
          Conv2d-132          [-1, 512, 15, 15]       3,277,312
     BatchNorm2d-133          [-1, 512, 15, 15]           1,024
            ReLU-134          [-1, 512, 15, 15]               0
          Conv2d-135          [-1, 512, 15, 15]         262,656
     BatchNorm2d-136          [-1, 512, 15, 15]           1,024
            ReLU-137          [-1, 512, 15, 15]               0
          Conv2d-138          [-1, 128, 15, 15]         589,952
     BatchNorm2d-139          [-1, 640, 15, 15]           1,280
            ReLU-140          [-1, 640, 15, 15]               0
          Conv2d-141          [-1, 512, 15, 15]         328,192
     BatchNorm2d-142          [-1, 512, 15, 15]           1,024
            ReLU-143          [-1, 512, 15, 15]               0
          Conv2d-144          [-1, 128, 15, 15]         589,952
     BatchNorm2d-145          [-1, 768, 15, 15]           1,536
            ReLU-146          [-1, 768, 15, 15]               0
          Conv2d-147          [-1, 512, 15, 15]         393,728
     BatchNorm2d-148          [-1, 512, 15, 15]           1,024
            ReLU-149          [-1, 512, 15, 15]               0
          Conv2d-150          [-1, 128, 15, 15]         589,952
     BatchNorm2d-151          [-1, 896, 15, 15]           1,792
            ReLU-152          [-1, 896, 15, 15]               0
          Conv2d-153          [-1, 512, 15, 15]         459,264
     BatchNorm2d-154          [-1, 512, 15, 15]           1,024
            ReLU-155          [-1, 512, 15, 15]               0
          Conv2d-156          [-1, 128, 15, 15]         589,952
     BatchNorm2d-157         [-1, 1024, 15, 15]           2,048
            ReLU-158         [-1, 1024, 15, 15]               0
          Conv2d-159          [-1, 512, 15, 15]         524,800
       ConvDense-160          [-1, 512, 15, 15]               0
       ConvBlock-161          [-1, 512, 15, 15]               0
        Down2dBB-162          [-1, 512, 15, 15]               0
       Dropout2d-163          [-1, 512, 15, 15]               0
     BatchNorm2d-164          [-1, 512, 15, 15]           1,024
          Conv2d-165           [-1, 1024, 7, 7]       4,719,616
     BatchNorm2d-166           [-1, 1024, 7, 7]           2,048
            ReLU-167           [-1, 1024, 7, 7]               0
          Conv2d-168           [-1, 1024, 7, 7]       1,049,600
     BatchNorm2d-169           [-1, 1024, 7, 7]           2,048
            ReLU-170           [-1, 1024, 7, 7]               0
          Conv2d-171            [-1, 256, 7, 7]       2,359,552
     BatchNorm2d-172           [-1, 1280, 7, 7]           2,560
            ReLU-173           [-1, 1280, 7, 7]               0
          Conv2d-174           [-1, 1024, 7, 7]       1,311,744
     BatchNorm2d-175           [-1, 1024, 7, 7]           2,048
            ReLU-176           [-1, 1024, 7, 7]               0
          Conv2d-177            [-1, 256, 7, 7]       2,359,552
     BatchNorm2d-178           [-1, 1536, 7, 7]           3,072
            ReLU-179           [-1, 1536, 7, 7]               0
          Conv2d-180           [-1, 1024, 7, 7]       1,573,888
     BatchNorm2d-181           [-1, 1024, 7, 7]           2,048
            ReLU-182           [-1, 1024, 7, 7]               0
          Conv2d-183            [-1, 256, 7, 7]       2,359,552
     BatchNorm2d-184           [-1, 1792, 7, 7]           3,584
            ReLU-185           [-1, 1792, 7, 7]               0
          Conv2d-186           [-1, 1024, 7, 7]       1,836,032
     BatchNorm2d-187           [-1, 1024, 7, 7]           2,048
            ReLU-188           [-1, 1024, 7, 7]               0
          Conv2d-189            [-1, 256, 7, 7]       2,359,552
     BatchNorm2d-190           [-1, 2048, 7, 7]           4,096
            ReLU-191           [-1, 2048, 7, 7]               0
          Conv2d-192           [-1, 1024, 7, 7]       2,098,176
       ConvDense-193           [-1, 1024, 7, 7]               0
       ConvBlock-194           [-1, 1024, 7, 7]               0
        Down2dBB-195           [-1, 1024, 7, 7]               0
       Dropout2d-196           [-1, 1024, 7, 7]               0
     BatchNorm2d-197           [-1, 1024, 7, 7]           2,048
 ConvTranspose2d-198          [-1, 512, 15, 15]       4,719,104
     BatchNorm2d-199          [-1, 512, 15, 15]           1,024
            ReLU-200          [-1, 512, 15, 15]               0
          Conv2d-201          [-1, 512, 15, 15]         262,656
     BatchNorm2d-202          [-1, 512, 15, 15]           1,024
            ReLU-203          [-1, 512, 15, 15]               0
          Conv2d-204          [-1, 128, 15, 15]         589,952
     BatchNorm2d-205          [-1, 640, 15, 15]           1,280
            ReLU-206          [-1, 640, 15, 15]               0
          Conv2d-207          [-1, 512, 15, 15]         328,192
     BatchNorm2d-208          [-1, 512, 15, 15]           1,024
            ReLU-209          [-1, 512, 15, 15]               0
          Conv2d-210          [-1, 128, 15, 15]         589,952
     BatchNorm2d-211          [-1, 768, 15, 15]           1,536
            ReLU-212          [-1, 768, 15, 15]               0
          Conv2d-213          [-1, 512, 15, 15]         393,728
     BatchNorm2d-214          [-1, 512, 15, 15]           1,024
            ReLU-215          [-1, 512, 15, 15]               0
          Conv2d-216          [-1, 128, 15, 15]         589,952
     BatchNorm2d-217          [-1, 896, 15, 15]           1,792
            ReLU-218          [-1, 896, 15, 15]               0
          Conv2d-219          [-1, 512, 15, 15]         459,264
     BatchNorm2d-220          [-1, 512, 15, 15]           1,024
            ReLU-221          [-1, 512, 15, 15]               0
          Conv2d-222          [-1, 128, 15, 15]         589,952
     BatchNorm2d-223         [-1, 1024, 15, 15]           2,048
            ReLU-224         [-1, 1024, 15, 15]               0
          Conv2d-225          [-1, 512, 15, 15]         524,800
       ConvDense-226          [-1, 512, 15, 15]               0
       ConvBlock-227          [-1, 512, 15, 15]               0
          Up2dBB-228          [-1, 512, 15, 15]               0
       Dropout2d-229          [-1, 512, 15, 15]               0
     BatchNorm2d-230         [-1, 1024, 15, 15]           2,048
 ConvTranspose2d-231          [-1, 256, 33, 33]       6,553,856
     BatchNorm2d-232          [-1, 256, 33, 33]             512
            ReLU-233          [-1, 256, 33, 33]               0
          Conv2d-234          [-1, 256, 33, 33]          65,792
     BatchNorm2d-235          [-1, 256, 33, 33]             512
            ReLU-236          [-1, 256, 33, 33]               0
          Conv2d-237           [-1, 64, 33, 33]         147,520
     BatchNorm2d-238          [-1, 320, 33, 33]             640
            ReLU-239          [-1, 320, 33, 33]               0
          Conv2d-240          [-1, 256, 33, 33]          82,176
     BatchNorm2d-241          [-1, 256, 33, 33]             512
            ReLU-242          [-1, 256, 33, 33]               0
          Conv2d-243           [-1, 64, 33, 33]         147,520
     BatchNorm2d-244          [-1, 384, 33, 33]             768
            ReLU-245          [-1, 384, 33, 33]               0
          Conv2d-246          [-1, 256, 33, 33]          98,560
     BatchNorm2d-247          [-1, 256, 33, 33]             512
            ReLU-248          [-1, 256, 33, 33]               0
          Conv2d-249           [-1, 64, 33, 33]         147,520
     BatchNorm2d-250          [-1, 448, 33, 33]             896
            ReLU-251          [-1, 448, 33, 33]               0
          Conv2d-252          [-1, 256, 33, 33]         114,944
     BatchNorm2d-253          [-1, 256, 33, 33]             512
            ReLU-254          [-1, 256, 33, 33]               0
          Conv2d-255           [-1, 64, 33, 33]         147,520
     BatchNorm2d-256          [-1, 512, 33, 33]           1,024
            ReLU-257          [-1, 512, 33, 33]               0
          Conv2d-258          [-1, 256, 33, 33]         131,328
       ConvDense-259          [-1, 256, 33, 33]               0
       ConvBlock-260          [-1, 256, 33, 33]               0
          Up2dBB-261          [-1, 256, 33, 33]               0
       Dropout2d-262          [-1, 256, 33, 33]               0
     BatchNorm2d-263          [-1, 512, 33, 33]           1,024
 ConvTranspose2d-264          [-1, 128, 69, 69]       1,638,528
     BatchNorm2d-265          [-1, 128, 69, 69]             256
            ReLU-266          [-1, 128, 69, 69]               0
          Conv2d-267          [-1, 128, 69, 69]          16,512
     BatchNorm2d-268          [-1, 128, 69, 69]             256
            ReLU-269          [-1, 128, 69, 69]               0
          Conv2d-270           [-1, 32, 69, 69]          36,896
     BatchNorm2d-271          [-1, 160, 69, 69]             320
            ReLU-272          [-1, 160, 69, 69]               0
          Conv2d-273          [-1, 128, 69, 69]          20,608
     BatchNorm2d-274          [-1, 128, 69, 69]             256
            ReLU-275          [-1, 128, 69, 69]               0
          Conv2d-276           [-1, 32, 69, 69]          36,896
     BatchNorm2d-277          [-1, 192, 69, 69]             384
            ReLU-278          [-1, 192, 69, 69]               0
          Conv2d-279          [-1, 128, 69, 69]          24,704
     BatchNorm2d-280          [-1, 128, 69, 69]             256
            ReLU-281          [-1, 128, 69, 69]               0
          Conv2d-282           [-1, 32, 69, 69]          36,896
     BatchNorm2d-283          [-1, 224, 69, 69]             448
            ReLU-284          [-1, 224, 69, 69]               0
          Conv2d-285          [-1, 128, 69, 69]          28,800
     BatchNorm2d-286          [-1, 128, 69, 69]             256
            ReLU-287          [-1, 128, 69, 69]               0
          Conv2d-288           [-1, 32, 69, 69]          36,896
     BatchNorm2d-289          [-1, 256, 69, 69]             512
            ReLU-290          [-1, 256, 69, 69]               0
          Conv2d-291          [-1, 128, 69, 69]          32,896
       ConvDense-292          [-1, 128, 69, 69]               0
       ConvBlock-293          [-1, 128, 69, 69]               0
          Up2dBB-294          [-1, 128, 69, 69]               0
       Dropout2d-295          [-1, 128, 69, 69]               0
     BatchNorm2d-296          [-1, 256, 69, 69]             512
 ConvTranspose2d-297         [-1, 64, 139, 139]         147,520
     BatchNorm2d-298         [-1, 64, 139, 139]             128
            ReLU-299         [-1, 64, 139, 139]               0
          Conv2d-300         [-1, 64, 139, 139]           4,160
     BatchNorm2d-301         [-1, 64, 139, 139]             128
            ReLU-302         [-1, 64, 139, 139]               0
          Conv2d-303         [-1, 16, 139, 139]           9,232
     BatchNorm2d-304         [-1, 80, 139, 139]             160
            ReLU-305         [-1, 80, 139, 139]               0
          Conv2d-306         [-1, 64, 139, 139]           5,184
     BatchNorm2d-307         [-1, 64, 139, 139]             128
            ReLU-308         [-1, 64, 139, 139]               0
          Conv2d-309         [-1, 16, 139, 139]           9,232
     BatchNorm2d-310         [-1, 96, 139, 139]             192
            ReLU-311         [-1, 96, 139, 139]               0
          Conv2d-312         [-1, 64, 139, 139]           6,208
     BatchNorm2d-313         [-1, 64, 139, 139]             128
            ReLU-314         [-1, 64, 139, 139]               0
          Conv2d-315         [-1, 16, 139, 139]           9,232
     BatchNorm2d-316        [-1, 112, 139, 139]             224
            ReLU-317        [-1, 112, 139, 139]               0
          Conv2d-318         [-1, 64, 139, 139]           7,232
     BatchNorm2d-319         [-1, 64, 139, 139]             128
            ReLU-320         [-1, 64, 139, 139]               0
          Conv2d-321         [-1, 16, 139, 139]           9,232
     BatchNorm2d-322        [-1, 128, 139, 139]             256
            ReLU-323        [-1, 128, 139, 139]               0
          Conv2d-324         [-1, 64, 139, 139]           8,256
       ConvDense-325         [-1, 64, 139, 139]               0
       ConvBlock-326         [-1, 64, 139, 139]               0
          Up2dBB-327         [-1, 64, 139, 139]               0
       Dropout2d-328         [-1, 64, 139, 139]               0
     BatchNorm2d-329        [-1, 128, 139, 139]             256
 ConvTranspose2d-330         [-1, 64, 281, 281]         204,864
     BatchNorm2d-331         [-1, 64, 281, 281]             128
            ReLU-332         [-1, 64, 281, 281]               0
          Conv2d-333         [-1, 64, 281, 281]           4,160
     BatchNorm2d-334         [-1, 64, 281, 281]             128
            ReLU-335         [-1, 64, 281, 281]               0
          Conv2d-336         [-1, 16, 281, 281]           9,232
     BatchNorm2d-337         [-1, 80, 281, 281]             160
            ReLU-338         [-1, 80, 281, 281]               0
          Conv2d-339         [-1, 64, 281, 281]           5,184
     BatchNorm2d-340         [-1, 64, 281, 281]             128
            ReLU-341         [-1, 64, 281, 281]               0
          Conv2d-342         [-1, 16, 281, 281]           9,232
     BatchNorm2d-343         [-1, 96, 281, 281]             192
            ReLU-344         [-1, 96, 281, 281]               0
          Conv2d-345         [-1, 64, 281, 281]           6,208
     BatchNorm2d-346         [-1, 64, 281, 281]             128
            ReLU-347         [-1, 64, 281, 281]               0
          Conv2d-348         [-1, 16, 281, 281]           9,232
     BatchNorm2d-349        [-1, 112, 281, 281]             224
            ReLU-350        [-1, 112, 281, 281]               0
          Conv2d-351         [-1, 64, 281, 281]           7,232
     BatchNorm2d-352         [-1, 64, 281, 281]             128
            ReLU-353         [-1, 64, 281, 281]               0
          Conv2d-354         [-1, 16, 281, 281]           9,232
     BatchNorm2d-355        [-1, 128, 281, 281]             256
            ReLU-356        [-1, 128, 281, 281]               0
          Conv2d-357         [-1, 64, 281, 281]           8,256
       ConvDense-358         [-1, 64, 281, 281]               0
       ConvBlock-359         [-1, 64, 281, 281]               0
          Up2dBB-360         [-1, 64, 281, 281]               0
       Dropout2d-361         [-1, 64, 281, 281]               0
     BatchNorm2d-362        [-1, 128, 281, 281]             256
            ReLU-363        [-1, 128, 281, 281]               0
          Conv2d-364        [-1, 128, 281, 281]          16,512
     BatchNorm2d-365        [-1, 128, 281, 281]             256
            ReLU-366        [-1, 128, 281, 281]               0
          Conv2d-367         [-1, 32, 281, 281]          36,896
     BatchNorm2d-368        [-1, 160, 281, 281]             320
            ReLU-369        [-1, 160, 281, 281]               0
          Conv2d-370        [-1, 128, 281, 281]          20,608
     BatchNorm2d-371        [-1, 128, 281, 281]             256
            ReLU-372        [-1, 128, 281, 281]               0
          Conv2d-373         [-1, 32, 281, 281]          36,896
     BatchNorm2d-374        [-1, 192, 281, 281]             384
            ReLU-375        [-1, 192, 281, 281]               0
          Conv2d-376        [-1, 128, 281, 281]          24,704
     BatchNorm2d-377        [-1, 128, 281, 281]             256
            ReLU-378        [-1, 128, 281, 281]               0
          Conv2d-379         [-1, 32, 281, 281]          36,896
     BatchNorm2d-380        [-1, 224, 281, 281]             448
            ReLU-381        [-1, 224, 281, 281]               0
          Conv2d-382        [-1, 128, 281, 281]          28,800
     BatchNorm2d-383        [-1, 128, 281, 281]             256
            ReLU-384        [-1, 128, 281, 281]               0
          Conv2d-385         [-1, 32, 281, 281]          36,896
     BatchNorm2d-386        [-1, 256, 281, 281]             512
            ReLU-387        [-1, 256, 281, 281]               0
          Conv2d-388        [-1, 128, 281, 281]          32,896
       ConvDense-389        [-1, 128, 281, 281]               0
       ConvBlock-390        [-1, 128, 281, 281]               0
     BatchNorm2d-391        [-1, 128, 281, 281]             256
          Conv2d-392          [-1, 2, 281, 281]             258
      ConvOutput-393          [-1, 2, 281, 281]               0
================================================================
Total params: 51,554,754
Trainable params: 51,554,754
Non-trainable params: 0
----------------------------------------------------------------
Input size (MB): 0.30
Forward/backward pass size (MB): 6318.44
Params size (MB): 196.67
Estimated Total Size (MB): 6515.40
----------------------------------------------------------------
===================End of Net Architecture =====================
…
