…
TrainData Input:  batchSize=8, depth=1, height=281, width=281, NumClassfication=2

TestData Input:  batchSize=8, depth=1, height=281, width=281, NumClassfication=2

Network trains from scratch.
Network has total 404838041 parameters.
Info: network dropout rate = 0.3
Infor: Cross Entropy Weight: [1.0260619741432382, 39.37007874015748]

====================Net Architecture===========================
----------------------------------------------------------------
        Layer (type)               Output Shape         Param #
================================================================
       BatchNorm2d-1          [-1, 1, 281, 281]               2
              ReLU-2          [-1, 1, 281, 281]               0
            Conv2d-3        [-1, 128, 281, 281]           1,280
       BatchNorm2d-4        [-1, 128, 281, 281]             256
              ReLU-5        [-1, 128, 281, 281]               0
            Conv2d-6        [-1, 128, 281, 281]         147,584
       BatchNorm2d-7        [-1, 128, 281, 281]             256
              ReLU-8        [-1, 128, 281, 281]               0
            Conv2d-9        [-1, 128, 281, 281]         147,584
      BatchNorm2d-10        [-1, 128, 281, 281]             256
             ReLU-11        [-1, 128, 281, 281]               0
           Conv2d-12        [-1, 128, 281, 281]         147,584
      BatchNorm2d-13        [-1, 128, 281, 281]             256
             ReLU-14        [-1, 128, 281, 281]               0
           Conv2d-15        [-1, 128, 281, 281]         147,584
   ConvSequential-16        [-1, 128, 281, 281]               0
      BatchNorm2d-17        [-1, 128, 281, 281]             256
           Conv2d-18        [-1, 128, 139, 139]         409,728
      BatchNorm2d-19        [-1, 128, 139, 139]             256
             ReLU-20        [-1, 128, 139, 139]               0
           Conv2d-21        [-1, 128, 139, 139]         147,584
      BatchNorm2d-22        [-1, 128, 139, 139]             256
             ReLU-23        [-1, 128, 139, 139]               0
           Conv2d-24        [-1, 128, 139, 139]         147,584
      BatchNorm2d-25        [-1, 128, 139, 139]             256
             ReLU-26        [-1, 128, 139, 139]               0
           Conv2d-27        [-1, 128, 139, 139]         147,584
      BatchNorm2d-28        [-1, 128, 139, 139]             256
             ReLU-29        [-1, 128, 139, 139]               0
           Conv2d-30        [-1, 128, 139, 139]         147,584
      BatchNorm2d-31        [-1, 128, 139, 139]             256
             ReLU-32        [-1, 128, 139, 139]               0
           Conv2d-33        [-1, 128, 139, 139]         147,584
   ConvSequential-34        [-1, 128, 139, 139]               0
         Down2dBB-35        [-1, 128, 139, 139]               0
        Dropout2d-36        [-1, 128, 139, 139]               0
      BatchNorm2d-37        [-1, 128, 139, 139]             256
           Conv2d-38          [-1, 256, 69, 69]         295,168
      BatchNorm2d-39          [-1, 256, 69, 69]             512
             ReLU-40          [-1, 256, 69, 69]               0
           Conv2d-41          [-1, 256, 69, 69]         590,080
      BatchNorm2d-42          [-1, 256, 69, 69]             512
             ReLU-43          [-1, 256, 69, 69]               0
           Conv2d-44          [-1, 256, 69, 69]         590,080
      BatchNorm2d-45          [-1, 256, 69, 69]             512
             ReLU-46          [-1, 256, 69, 69]               0
           Conv2d-47          [-1, 256, 69, 69]         590,080
      BatchNorm2d-48          [-1, 256, 69, 69]             512
             ReLU-49          [-1, 256, 69, 69]               0
           Conv2d-50          [-1, 256, 69, 69]         590,080
      BatchNorm2d-51          [-1, 256, 69, 69]             512
             ReLU-52          [-1, 256, 69, 69]               0
           Conv2d-53          [-1, 256, 69, 69]         590,080
   ConvSequential-54          [-1, 256, 69, 69]               0
         Down2dBB-55          [-1, 256, 69, 69]               0
        Dropout2d-56          [-1, 256, 69, 69]               0
      BatchNorm2d-57          [-1, 256, 69, 69]             512
           Conv2d-58          [-1, 512, 33, 33]       3,277,312
      BatchNorm2d-59          [-1, 512, 33, 33]           1,024
             ReLU-60          [-1, 512, 33, 33]               0
           Conv2d-61          [-1, 512, 33, 33]       2,359,808
      BatchNorm2d-62          [-1, 512, 33, 33]           1,024
             ReLU-63          [-1, 512, 33, 33]               0
           Conv2d-64          [-1, 512, 33, 33]       2,359,808
      BatchNorm2d-65          [-1, 512, 33, 33]           1,024
             ReLU-66          [-1, 512, 33, 33]               0
           Conv2d-67          [-1, 512, 33, 33]       2,359,808
      BatchNorm2d-68          [-1, 512, 33, 33]           1,024
             ReLU-69          [-1, 512, 33, 33]               0
           Conv2d-70          [-1, 512, 33, 33]       2,359,808
      BatchNorm2d-71          [-1, 512, 33, 33]           1,024
             ReLU-72          [-1, 512, 33, 33]               0
           Conv2d-73          [-1, 512, 33, 33]       2,359,808
   ConvSequential-74          [-1, 512, 33, 33]               0
         Down2dBB-75          [-1, 512, 33, 33]               0
        Dropout2d-76          [-1, 512, 33, 33]               0
      BatchNorm2d-77          [-1, 512, 33, 33]           1,024
           Conv2d-78         [-1, 1024, 15, 15]      13,108,224
      BatchNorm2d-79         [-1, 1024, 15, 15]           2,048
             ReLU-80         [-1, 1024, 15, 15]               0
           Conv2d-81         [-1, 1024, 15, 15]       9,438,208
      BatchNorm2d-82         [-1, 1024, 15, 15]           2,048
             ReLU-83         [-1, 1024, 15, 15]               0
           Conv2d-84         [-1, 1024, 15, 15]       9,438,208
      BatchNorm2d-85         [-1, 1024, 15, 15]           2,048
             ReLU-86         [-1, 1024, 15, 15]               0
           Conv2d-87         [-1, 1024, 15, 15]       9,438,208
      BatchNorm2d-88         [-1, 1024, 15, 15]           2,048
             ReLU-89         [-1, 1024, 15, 15]               0
           Conv2d-90         [-1, 1024, 15, 15]       9,438,208
      BatchNorm2d-91         [-1, 1024, 15, 15]           2,048
             ReLU-92         [-1, 1024, 15, 15]               0
           Conv2d-93         [-1, 1024, 15, 15]       9,438,208
   ConvSequential-94         [-1, 1024, 15, 15]               0
         Down2dBB-95         [-1, 1024, 15, 15]               0
        Dropout2d-96         [-1, 1024, 15, 15]               0
      BatchNorm2d-97         [-1, 1024, 15, 15]           2,048
           Conv2d-98           [-1, 2048, 7, 7]      18,876,416
      BatchNorm2d-99           [-1, 2048, 7, 7]           4,096
            ReLU-100           [-1, 2048, 7, 7]               0
          Conv2d-101           [-1, 2048, 7, 7]      37,750,784
     BatchNorm2d-102           [-1, 2048, 7, 7]           4,096
            ReLU-103           [-1, 2048, 7, 7]               0
          Conv2d-104           [-1, 2048, 7, 7]      37,750,784
     BatchNorm2d-105           [-1, 2048, 7, 7]           4,096
            ReLU-106           [-1, 2048, 7, 7]               0
          Conv2d-107           [-1, 2048, 7, 7]      37,750,784
     BatchNorm2d-108           [-1, 2048, 7, 7]           4,096
            ReLU-109           [-1, 2048, 7, 7]               0
          Conv2d-110           [-1, 2048, 7, 7]      37,750,784
     BatchNorm2d-111           [-1, 2048, 7, 7]           4,096
            ReLU-112           [-1, 2048, 7, 7]               0
          Conv2d-113           [-1, 2048, 7, 7]      37,750,784
  ConvSequential-114           [-1, 2048, 7, 7]               0
        Down2dBB-115           [-1, 2048, 7, 7]               0
       Dropout2d-116           [-1, 2048, 7, 7]               0
     BatchNorm2d-117           [-1, 2048, 7, 7]           4,096
 ConvTranspose2d-118         [-1, 1024, 15, 15]      18,875,392
     BatchNorm2d-119         [-1, 1024, 15, 15]           2,048
            ReLU-120         [-1, 1024, 15, 15]               0
          Conv2d-121         [-1, 1024, 15, 15]       9,438,208
     BatchNorm2d-122         [-1, 1024, 15, 15]           2,048
            ReLU-123         [-1, 1024, 15, 15]               0
          Conv2d-124         [-1, 1024, 15, 15]       9,438,208
     BatchNorm2d-125         [-1, 1024, 15, 15]           2,048
            ReLU-126         [-1, 1024, 15, 15]               0
          Conv2d-127         [-1, 1024, 15, 15]       9,438,208
     BatchNorm2d-128         [-1, 1024, 15, 15]           2,048
            ReLU-129         [-1, 1024, 15, 15]               0
          Conv2d-130         [-1, 1024, 15, 15]       9,438,208
     BatchNorm2d-131         [-1, 1024, 15, 15]           2,048
            ReLU-132         [-1, 1024, 15, 15]               0
          Conv2d-133         [-1, 1024, 15, 15]       9,438,208
  ConvSequential-134         [-1, 1024, 15, 15]               0
          Up2dBB-135         [-1, 1024, 15, 15]               0
       Dropout2d-136         [-1, 1024, 15, 15]               0
     BatchNorm2d-137         [-1, 2048, 15, 15]           4,096
 ConvTranspose2d-138          [-1, 512, 33, 33]      26,214,912
     BatchNorm2d-139          [-1, 512, 33, 33]           1,024
            ReLU-140          [-1, 512, 33, 33]               0
          Conv2d-141          [-1, 512, 33, 33]       2,359,808
     BatchNorm2d-142          [-1, 512, 33, 33]           1,024
            ReLU-143          [-1, 512, 33, 33]               0
          Conv2d-144          [-1, 512, 33, 33]       2,359,808
     BatchNorm2d-145          [-1, 512, 33, 33]           1,024
            ReLU-146          [-1, 512, 33, 33]               0
          Conv2d-147          [-1, 512, 33, 33]       2,359,808
     BatchNorm2d-148          [-1, 512, 33, 33]           1,024
            ReLU-149          [-1, 512, 33, 33]               0
          Conv2d-150          [-1, 512, 33, 33]       2,359,808
     BatchNorm2d-151          [-1, 512, 33, 33]           1,024
            ReLU-152          [-1, 512, 33, 33]               0
          Conv2d-153          [-1, 512, 33, 33]       2,359,808
  ConvSequential-154          [-1, 512, 33, 33]               0
          Up2dBB-155          [-1, 512, 33, 33]               0
       Dropout2d-156          [-1, 512, 33, 33]               0
     BatchNorm2d-157         [-1, 1024, 33, 33]           2,048
 ConvTranspose2d-158          [-1, 256, 69, 69]       6,553,856
     BatchNorm2d-159          [-1, 256, 69, 69]             512
            ReLU-160          [-1, 256, 69, 69]               0
          Conv2d-161          [-1, 256, 69, 69]         590,080
     BatchNorm2d-162          [-1, 256, 69, 69]             512
            ReLU-163          [-1, 256, 69, 69]               0
          Conv2d-164          [-1, 256, 69, 69]         590,080
     BatchNorm2d-165          [-1, 256, 69, 69]             512
            ReLU-166          [-1, 256, 69, 69]               0
          Conv2d-167          [-1, 256, 69, 69]         590,080
     BatchNorm2d-168          [-1, 256, 69, 69]             512
            ReLU-169          [-1, 256, 69, 69]               0
          Conv2d-170          [-1, 256, 69, 69]         590,080
     BatchNorm2d-171          [-1, 256, 69, 69]             512
            ReLU-172          [-1, 256, 69, 69]               0
          Conv2d-173          [-1, 256, 69, 69]         590,080
  ConvSequential-174          [-1, 256, 69, 69]               0
          Up2dBB-175          [-1, 256, 69, 69]               0
       Dropout2d-176          [-1, 256, 69, 69]               0
     BatchNorm2d-177          [-1, 512, 69, 69]           1,024
 ConvTranspose2d-178        [-1, 128, 139, 139]         589,952
     BatchNorm2d-179        [-1, 128, 139, 139]             256
            ReLU-180        [-1, 128, 139, 139]               0
          Conv2d-181        [-1, 128, 139, 139]         147,584
     BatchNorm2d-182        [-1, 128, 139, 139]             256
            ReLU-183        [-1, 128, 139, 139]               0
          Conv2d-184        [-1, 128, 139, 139]         147,584
     BatchNorm2d-185        [-1, 128, 139, 139]             256
            ReLU-186        [-1, 128, 139, 139]               0
          Conv2d-187        [-1, 128, 139, 139]         147,584
     BatchNorm2d-188        [-1, 128, 139, 139]             256
            ReLU-189        [-1, 128, 139, 139]               0
          Conv2d-190        [-1, 128, 139, 139]         147,584
     BatchNorm2d-191        [-1, 128, 139, 139]             256
            ReLU-192        [-1, 128, 139, 139]               0
          Conv2d-193        [-1, 128, 139, 139]         147,584
  ConvSequential-194        [-1, 128, 139, 139]               0
          Up2dBB-195        [-1, 128, 139, 139]               0
       Dropout2d-196        [-1, 128, 139, 139]               0
     BatchNorm2d-197        [-1, 256, 139, 139]             512
 ConvTranspose2d-198        [-1, 128, 281, 281]         819,328
     BatchNorm2d-199        [-1, 128, 281, 281]             256
            ReLU-200        [-1, 128, 281, 281]               0
          Conv2d-201        [-1, 128, 281, 281]         147,584
     BatchNorm2d-202        [-1, 128, 281, 281]             256
            ReLU-203        [-1, 128, 281, 281]               0
          Conv2d-204        [-1, 128, 281, 281]         147,584
     BatchNorm2d-205        [-1, 128, 281, 281]             256
            ReLU-206        [-1, 128, 281, 281]               0
          Conv2d-207        [-1, 128, 281, 281]         147,584
     BatchNorm2d-208        [-1, 128, 281, 281]             256
            ReLU-209        [-1, 128, 281, 281]               0
          Conv2d-210        [-1, 128, 281, 281]         147,584
     BatchNorm2d-211        [-1, 128, 281, 281]             256
            ReLU-212        [-1, 128, 281, 281]               0
          Conv2d-213        [-1, 128, 281, 281]         147,584
  ConvSequential-214        [-1, 128, 281, 281]               0
          Up2dBB-215        [-1, 128, 281, 281]               0
       Dropout2d-216        [-1, 128, 281, 281]               0
     BatchNorm2d-217        [-1, 256, 281, 281]             512
            ReLU-218        [-1, 256, 281, 281]               0
          Conv2d-219        [-1, 129, 281, 281]         297,345
     BatchNorm2d-220        [-1, 129, 281, 281]             258
            ReLU-221        [-1, 129, 281, 281]               0
          Conv2d-222          [-1, 2, 281, 281]           2,324
ConvSeqDecreaseChannels-223          [-1, 2, 281, 281]               0
================================================================
Total params: 404,838,041
Trainable params: 404,838,041
Non-trainable params: 0
----------------------------------------------------------------
Input size (MB): 0.30
Forward/backward pass size (MB): 4583.59
Params size (MB): 1544.33
Estimated Total Size (MB): 6128.22
----------------------------------------------------------------
===================End of Net Architecture =====================
…
