…
Building the Segmented Slice Tuple list, please waiting......
Directory of /home/hxie1/data/OvarianCancerCT/Extract_uniform/testLabels has 141 segmented slices.
Input:  batchSize=64, depth=21, height=281, width=281, NumClassfication=4

Network has total 12854479 parameters.
Info: network dropout rate = 0.2
Network trains from scratch.

====================Net Architecture===========================
----------------------------------------------------------------
        Layer (type)               Output Shape         Param #
================================================================
            Conv3d-1      [-1, 32, 9, 139, 139]           4,032
       BatchNorm3d-2      [-1, 32, 9, 139, 139]              64
         Dropout3d-3      [-1, 32, 9, 139, 139]               0
            Conv3d-4        [-1, 64, 3, 69, 69]          92,224
       BatchNorm3d-5        [-1, 64, 3, 69, 69]             128
         Dropout3d-6        [-1, 64, 3, 69, 69]               0
            Conv3d-7       [-1, 128, 1, 33, 33]         614,528
       BatchNorm3d-8       [-1, 128, 1, 33, 33]             256
         Dropout3d-9       [-1, 128, 1, 33, 33]               0
           Conv2d-10          [-1, 256, 15, 15]         819,456
      BatchNorm2d-11          [-1, 256, 15, 15]             512
        Dropout2d-12          [-1, 256, 15, 15]               0
           Conv2d-13            [-1, 512, 7, 7]       1,180,160
      BatchNorm2d-14            [-1, 512, 7, 7]           1,024
        Dropout2d-15            [-1, 512, 7, 7]               0
           Conv2d-16            [-1, 512, 3, 3]       2,359,808
      BatchNorm2d-17            [-1, 512, 3, 3]           1,024
        Dropout2d-18            [-1, 512, 3, 3]               0
  ConvTranspose2d-19            [-1, 512, 7, 7]       2,359,808
      BatchNorm2d-20            [-1, 512, 7, 7]           1,024
        Dropout2d-21            [-1, 512, 7, 7]               0
  ConvTranspose2d-22          [-1, 256, 15, 15]       2,359,552
      BatchNorm2d-23          [-1, 256, 15, 15]             512
        Dropout2d-24          [-1, 256, 15, 15]               0
  ConvTranspose2d-25          [-1, 128, 33, 33]       1,638,528
      BatchNorm2d-26          [-1, 128, 33, 33]             256
        Dropout2d-27          [-1, 128, 33, 33]               0
  ConvTranspose3d-28        [-1, 64, 3, 69, 69]       1,228,864
      BatchNorm3d-29        [-1, 64, 3, 69, 69]             128
        Dropout3d-30        [-1, 64, 3, 69, 69]               0
  ConvTranspose3d-31      [-1, 32, 9, 139, 139]         184,352
      BatchNorm3d-32      [-1, 32, 9, 139, 139]              64
        Dropout3d-33      [-1, 32, 9, 139, 139]               0
  ConvTranspose3d-34      [-1, 1, 21, 281, 281]           8,001
      BatchNorm3d-35      [-1, 1, 21, 281, 281]               2
        Dropout3d-36      [-1, 1, 21, 281, 281]               0
           Conv2d-37          [-1, 4, 281, 281]             172
================================================================
Total params: 12,854,479
Trainable params: 12,854,479
Non-trainable params: 0
----------------------------------------------------------------
Input size (MB): 6.33
Forward/backward pass size (MB): 347.20
Params size (MB): 49.04
Estimated Total Size (MB): 402.56
----------------------------------------------------------------
===================End of Net Architecture =====================
…
Directory of /home/hxie1/data/OvarianCancerCT/Extract_uniform/testLabels has 141 segmented slices.
Info: program uses 2D input.
TrainData Input:  batchSize=64, depth=1, height=281, width=281, NumClassfication=4

TestData Input:  batchSize=64, depth=1, height=281, width=281, NumClassfication=4

Network has total 11442945 parameters.
Info: network dropout rate = 0.2
Network trains from scratch.

====================Net Architecture===========================
----------------------------------------------------------------
        Layer (type)               Output Shape         Param #
================================================================
            Conv2d-1         [-1, 32, 139, 139]             832
       BatchNorm2d-2         [-1, 32, 139, 139]              64
         Dropout2d-3         [-1, 32, 139, 139]               0
            Conv2d-4           [-1, 64, 69, 69]          18,496
       BatchNorm2d-5           [-1, 64, 69, 69]             128
         Dropout2d-6           [-1, 64, 69, 69]               0
            Conv2d-7          [-1, 128, 33, 33]         204,928
       BatchNorm2d-8          [-1, 128, 33, 33]             256
         Dropout2d-9          [-1, 128, 33, 33]               0
           Conv2d-10          [-1, 256, 15, 15]         819,456
      BatchNorm2d-11          [-1, 256, 15, 15]             512
        Dropout2d-12          [-1, 256, 15, 15]               0
           Conv2d-13            [-1, 512, 7, 7]       1,180,160
      BatchNorm2d-14            [-1, 512, 7, 7]           1,024
        Dropout2d-15            [-1, 512, 7, 7]               0
           Conv2d-16            [-1, 512, 3, 3]       2,359,808
      BatchNorm2d-17            [-1, 512, 3, 3]           1,024
        Dropout2d-18            [-1, 512, 3, 3]               0
  ConvTranspose2d-19            [-1, 512, 7, 7]       2,359,808
      BatchNorm2d-20            [-1, 512, 7, 7]           1,024
        Dropout2d-21            [-1, 512, 7, 7]               0
  ConvTranspose2d-22          [-1, 256, 15, 15]       2,359,552
      BatchNorm2d-23          [-1, 256, 15, 15]             512
        Dropout2d-24          [-1, 256, 15, 15]               0
  ConvTranspose2d-25          [-1, 128, 33, 33]       1,638,528
      BatchNorm2d-26          [-1, 128, 33, 33]             256
        Dropout2d-27          [-1, 128, 33, 33]               0
  ConvTranspose2d-28           [-1, 64, 69, 69]         409,664
      BatchNorm2d-29           [-1, 64, 69, 69]             128
        Dropout2d-30           [-1, 64, 69, 69]               0
  ConvTranspose2d-31         [-1, 32, 139, 139]          36,896
      BatchNorm2d-32         [-1, 32, 139, 139]              64
        Dropout2d-33         [-1, 32, 139, 139]               0
  ConvTranspose2d-34         [-1, 31, 281, 281]          49,631
      BatchNorm2d-35         [-1, 31, 281, 281]              62
        Dropout2d-36         [-1, 31, 281, 281]               0
           Conv2d-37          [-1, 4, 281, 281]             132
================================================================
Total params: 11,442,945
Trainable params: 11,442,945
Non-trainable params: 0
----------------------------------------------------------------
Input size (MB): 0.30
Forward/backward pass size (MB): 110.96
Params size (MB): 43.65
Estimated Total Size (MB): 154.91
----------------------------------------------------------------
===================End of Net Architecture =====================
…
TrainData Input:  batchSize=64, depth=1, height=281, width=281, NumClassfication=2

TestData Input:  batchSize=64, depth=1, height=281, width=281, NumClassfication=2

Network has total 11442879 parameters.
Info: network dropout rate = 0.3
Infor: Cross Entropy Weight:  [1.0260619741432382, 39.37007874015748]
Network trains from scratch.

====================Net Architecture===========================
----------------------------------------------------------------
        Layer (type)               Output Shape         Param #
================================================================
            Conv2d-1         [-1, 32, 139, 139]             832
       BatchNorm2d-2         [-1, 32, 139, 139]              64
         Dropout2d-3         [-1, 32, 139, 139]               0
            Conv2d-4           [-1, 64, 69, 69]          18,496
       BatchNorm2d-5           [-1, 64, 69, 69]             128
         Dropout2d-6           [-1, 64, 69, 69]               0
            Conv2d-7          [-1, 128, 33, 33]         204,928
       BatchNorm2d-8          [-1, 128, 33, 33]             256
         Dropout2d-9          [-1, 128, 33, 33]               0
           Conv2d-10          [-1, 256, 15, 15]         819,456
      BatchNorm2d-11          [-1, 256, 15, 15]             512
        Dropout2d-12          [-1, 256, 15, 15]               0
           Conv2d-13            [-1, 512, 7, 7]       1,180,160
      BatchNorm2d-14            [-1, 512, 7, 7]           1,024
        Dropout2d-15            [-1, 512, 7, 7]               0
           Conv2d-16            [-1, 512, 3, 3]       2,359,808
      BatchNorm2d-17            [-1, 512, 3, 3]           1,024
        Dropout2d-18            [-1, 512, 3, 3]               0
  ConvTranspose2d-19            [-1, 512, 7, 7]       2,359,808
      BatchNorm2d-20            [-1, 512, 7, 7]           1,024
        Dropout2d-21            [-1, 512, 7, 7]               0
  ConvTranspose2d-22          [-1, 256, 15, 15]       2,359,552
      BatchNorm2d-23          [-1, 256, 15, 15]             512
        Dropout2d-24          [-1, 256, 15, 15]               0
  ConvTranspose2d-25          [-1, 128, 33, 33]       1,638,528
      BatchNorm2d-26          [-1, 128, 33, 33]             256
        Dropout2d-27          [-1, 128, 33, 33]               0
  ConvTranspose2d-28           [-1, 64, 69, 69]         409,664
      BatchNorm2d-29           [-1, 64, 69, 69]             128
        Dropout2d-30           [-1, 64, 69, 69]               0
  ConvTranspose2d-31         [-1, 32, 139, 139]          36,896
      BatchNorm2d-32         [-1, 32, 139, 139]              64
        Dropout2d-33         [-1, 32, 139, 139]               0
  ConvTranspose2d-34         [-1, 31, 281, 281]          49,631
      BatchNorm2d-35         [-1, 31, 281, 281]              62
        Dropout2d-36         [-1, 31, 281, 281]               0
           Conv2d-37          [-1, 2, 281, 281]              66
================================================================
Total params: 11,442,879
Trainable params: 11,442,879
Non-trainable params: 0
----------------------------------------------------------------
Input size (MB): 0.30
Forward/backward pass size (MB): 109.75
Params size (MB): 43.65
Estimated Total Size (MB): 153.70
----------------------------------------------------------------
===================End of Net Architecture =====================
…
TrainData Input:  batchSize=64, depth=1, height=281, width=281, NumClassfication=2

TestData Input:  batchSize=64, depth=1, height=281, width=281, NumClassfication=2

Network has total 102944831 parameters.
Info: network dropout rate = 0.1
Infor: Cross Entropy Weight:  [1.0148369157076458, 68.39945280437757]
Network trains from scratch.

====================Net Architecture===========================
----------------------------------------------------------------
        Layer (type)               Output Shape         Param #
================================================================
            Conv2d-1         [-1, 96, 139, 139]           2,496
       BatchNorm2d-2         [-1, 96, 139, 139]             192
         Dropout2d-3         [-1, 96, 139, 139]               0
            Conv2d-4          [-1, 192, 69, 69]         166,080
       BatchNorm2d-5          [-1, 192, 69, 69]             384
         Dropout2d-6          [-1, 192, 69, 69]               0
            Conv2d-7          [-1, 384, 33, 33]       1,843,584
       BatchNorm2d-8          [-1, 384, 33, 33]             768
         Dropout2d-9          [-1, 384, 33, 33]               0
           Conv2d-10          [-1, 768, 15, 15]       7,373,568
      BatchNorm2d-11          [-1, 768, 15, 15]           1,536
        Dropout2d-12          [-1, 768, 15, 15]               0
           Conv2d-13           [-1, 1536, 7, 7]      10,618,368
      BatchNorm2d-14           [-1, 1536, 7, 7]           3,072
        Dropout2d-15           [-1, 1536, 7, 7]               0
           Conv2d-16           [-1, 1536, 3, 3]      21,235,200
      BatchNorm2d-17           [-1, 1536, 3, 3]           3,072
        Dropout2d-18           [-1, 1536, 3, 3]               0
  ConvTranspose2d-19           [-1, 1536, 7, 7]      21,235,200
      BatchNorm2d-20           [-1, 1536, 7, 7]           3,072
        Dropout2d-21           [-1, 1536, 7, 7]               0
  ConvTranspose2d-22          [-1, 768, 15, 15]      21,234,432
      BatchNorm2d-23          [-1, 768, 15, 15]           1,536
        Dropout2d-24          [-1, 768, 15, 15]               0
  ConvTranspose2d-25          [-1, 384, 33, 33]      14,745,984
      BatchNorm2d-26          [-1, 384, 33, 33]             768
        Dropout2d-27          [-1, 384, 33, 33]               0
  ConvTranspose2d-28          [-1, 192, 69, 69]       3,686,592
      BatchNorm2d-29          [-1, 192, 69, 69]             384
        Dropout2d-30          [-1, 192, 69, 69]               0
  ConvTranspose2d-31         [-1, 96, 139, 139]         331,872
      BatchNorm2d-32         [-1, 96, 139, 139]             192
        Dropout2d-33         [-1, 96, 139, 139]               0
  ConvTranspose2d-34         [-1, 95, 281, 281]         456,095
      BatchNorm2d-35         [-1, 95, 281, 281]             190
        Dropout2d-36         [-1, 95, 281, 281]               0
           Conv2d-37          [-1, 2, 281, 281]             194
================================================================
Total params: 102,944,831
Trainable params: 102,944,831
Non-trainable params: 0
----------------------------------------------------------------
Input size (MB): 0.30
Forward/backward pass size (MB): 330.46
Params size (MB): 392.70
Estimated Total Size (MB): 723.47
----------------------------------------------------------------
===================End of Net Architecture =====================
…
TestData Input:  batchSize=8, depth=1, height=281, width=281, NumClassfication=2

Building image attributes list, please waiting......
Network has total 183003903 parameters.
Infor: Cross Entropy Weight:  [1.0260619741432382, 39.37007874015748]
Program loads net from /home/hxie1/temp_netParameters/OvarianCancer/Label0_1/Best.

====================Net Architecture===========================
----------------------------------------------------------------
        Layer (type)               Output Shape         Param #
================================================================
            Conv2d-1        [-1, 128, 139, 139]           3,328
       BatchNorm2d-2        [-1, 128, 139, 139]             256
         Dropout2d-3        [-1, 128, 139, 139]               0
            Conv2d-4          [-1, 256, 69, 69]         295,168
       BatchNorm2d-5          [-1, 256, 69, 69]             512
         Dropout2d-6          [-1, 256, 69, 69]               0
            Conv2d-7          [-1, 512, 33, 33]       3,277,312
       BatchNorm2d-8          [-1, 512, 33, 33]           1,024
         Dropout2d-9          [-1, 512, 33, 33]               0
           Conv2d-10         [-1, 1024, 15, 15]      13,108,224
      BatchNorm2d-11         [-1, 1024, 15, 15]           2,048
        Dropout2d-12         [-1, 1024, 15, 15]               0
           Conv2d-13           [-1, 2048, 7, 7]      18,876,416
      BatchNorm2d-14           [-1, 2048, 7, 7]           4,096
        Dropout2d-15           [-1, 2048, 7, 7]               0
           Conv2d-16           [-1, 2048, 3, 3]      37,750,784
      BatchNorm2d-17           [-1, 2048, 3, 3]           4,096
        Dropout2d-18           [-1, 2048, 3, 3]               0
  ConvTranspose2d-19           [-1, 2048, 7, 7]      37,750,784
      BatchNorm2d-20           [-1, 2048, 7, 7]           4,096
        Dropout2d-21           [-1, 2048, 7, 7]               0
  ConvTranspose2d-22         [-1, 1024, 15, 15]      37,749,760
      BatchNorm2d-23         [-1, 1024, 15, 15]           2,048
        Dropout2d-24         [-1, 1024, 15, 15]               0
  ConvTranspose2d-25          [-1, 512, 33, 33]      26,214,912
      BatchNorm2d-26          [-1, 512, 33, 33]           1,024
        Dropout2d-27          [-1, 512, 33, 33]               0
  ConvTranspose2d-28          [-1, 256, 69, 69]       6,553,856
      BatchNorm2d-29          [-1, 256, 69, 69]             512
        Dropout2d-30          [-1, 256, 69, 69]               0
  ConvTranspose2d-31        [-1, 128, 139, 139]         589,952
      BatchNorm2d-32        [-1, 128, 139, 139]             256
        Dropout2d-33        [-1, 128, 139, 139]               0
  ConvTranspose2d-34        [-1, 127, 281, 281]         812,927
      BatchNorm2d-35        [-1, 127, 281, 281]             254
        Dropout2d-36        [-1, 127, 281, 281]               0
           Conv2d-37          [-1, 2, 281, 281]             258
================================================================
Total params: 183,003,903
Trainable params: 183,003,903
Non-trainable params: 0
----------------------------------------------------------------
Input size (MB): 0.30
Forward/backward pass size (MB): 440.82
Params size (MB): 698.10
Estimated Total Size (MB): 1139.22
----------------------------------------------------------------
===================End of Net Architecture =====================
…
TrainData Input:  batchSize=8, depth=1, height=281, width=281, NumClassfication=2

TestData Input:  batchSize=8, depth=1, height=281, width=281, NumClassfication=2

Network trains from scratch.
Network has total 354448895 parameters.
Info: network dropout rate = 0.3
Infor: Cross Entropy Weight:  [1.0260619741432382, 39.37007874015748]

====================Net Architecture===========================
----------------------------------------------------------------
        Layer (type)               Output Shape         Param #
================================================================
            Conv2d-1        [-1, 256, 139, 139]           6,656
       BatchNorm2d-2        [-1, 256, 139, 139]             512
         Dropout2d-3        [-1, 256, 139, 139]               0
            Conv2d-4          [-1, 512, 69, 69]       1,180,160
       BatchNorm2d-5          [-1, 512, 69, 69]           1,024
         Dropout2d-6          [-1, 512, 69, 69]               0
            Conv2d-7         [-1, 1024, 33, 33]      13,108,224
       BatchNorm2d-8         [-1, 1024, 33, 33]           2,048
         Dropout2d-9         [-1, 1024, 33, 33]               0
           Conv2d-10         [-1, 2048, 15, 15]      52,430,848
      BatchNorm2d-11         [-1, 2048, 15, 15]           4,096
        Dropout2d-12         [-1, 2048, 15, 15]               0
           Conv2d-13           [-1, 4096, 7, 7]      75,501,568
      BatchNorm2d-14           [-1, 4096, 7, 7]           8,192
  ConvTranspose2d-15         [-1, 2048, 15, 15]      75,499,520
      BatchNorm2d-16         [-1, 2048, 15, 15]           4,096
  ConvTranspose2d-17         [-1, 1024, 33, 33]     104,858,624
      BatchNorm2d-18         [-1, 1024, 33, 33]           2,048
        Dropout2d-19         [-1, 1024, 33, 33]               0
  ConvTranspose2d-20          [-1, 512, 69, 69]      26,214,912
      BatchNorm2d-21          [-1, 512, 69, 69]           1,024
        Dropout2d-22          [-1, 512, 69, 69]               0
  ConvTranspose2d-23        [-1, 256, 139, 139]       2,359,552
      BatchNorm2d-24        [-1, 256, 139, 139]             512
        Dropout2d-25        [-1, 256, 139, 139]               0
  ConvTranspose2d-26        [-1, 255, 281, 281]       3,264,255
      BatchNorm2d-27        [-1, 255, 281, 281]             510
        Dropout2d-28        [-1, 255, 281, 281]               0
           Conv2d-29          [-1, 2, 281, 281]             514
================================================================
Total params: 354,448,895
Trainable params: 354,448,895
Non-trainable params: 0
----------------------------------------------------------------
Input size (MB): 0.30
Forward/backward pass size (MB): 871.75
Params size (MB): 1352.12
Estimated Total Size (MB): 2224.17
----------------------------------------------------------------
===================End of Net Architecture =====================
…
TrainData Input:  batchSize=8, depth=1, height=281, width=281, NumClassfication=2

TestData Input:  batchSize=8, depth=1, height=281, width=281, NumClassfication=2

Network trains from scratch.
Network has total 149828226 parameters.
Info: network dropout rate = 0.3
Infor: Cross Entropy Weight:  [1.0260619741432382, 39.37007874015748]

====================Net Architecture===========================
----------------------------------------------------------------
        Layer (type)               Output Shape         Param #
================================================================
            Conv2d-1         [-1, 64, 281, 281]             640
       BatchNorm2d-2         [-1, 64, 281, 281]             128
            Conv2d-3         [-1, 64, 281, 281]          36,928
       BatchNorm2d-4         [-1, 64, 281, 281]             128
              ReLU-5         [-1, 64, 281, 281]               0
            Conv2d-6         [-1, 64, 281, 281]          36,928
       BatchNorm2d-7         [-1, 64, 281, 281]             128
              ReLU-8         [-1, 64, 281, 281]               0
    ConvSequential-9         [-1, 64, 281, 281]               0
           Conv2d-10         [-1, 64, 139, 139]         102,464
      BatchNorm2d-11         [-1, 64, 139, 139]             128
           Conv2d-12         [-1, 64, 139, 139]          36,928
      BatchNorm2d-13         [-1, 64, 139, 139]             128
           Conv2d-14         [-1, 64, 139, 139]          36,928
      BatchNorm2d-15         [-1, 64, 139, 139]             128
             ReLU-16         [-1, 64, 139, 139]               0
           Conv2d-17         [-1, 64, 139, 139]          36,928
      BatchNorm2d-18         [-1, 64, 139, 139]             128
             ReLU-19         [-1, 64, 139, 139]               0
   ConvSequential-20         [-1, 64, 139, 139]               0
         Down2dBB-21         [-1, 64, 139, 139]               0
        Dropout2d-22         [-1, 64, 139, 139]               0
           Conv2d-23          [-1, 128, 69, 69]          73,856
      BatchNorm2d-24          [-1, 128, 69, 69]             256
           Conv2d-25          [-1, 128, 69, 69]         147,584
      BatchNorm2d-26          [-1, 128, 69, 69]             256
           Conv2d-27          [-1, 128, 69, 69]         147,584
      BatchNorm2d-28          [-1, 128, 69, 69]             256
             ReLU-29          [-1, 128, 69, 69]               0
           Conv2d-30          [-1, 128, 69, 69]         147,584
      BatchNorm2d-31          [-1, 128, 69, 69]             256
             ReLU-32          [-1, 128, 69, 69]               0
   ConvSequential-33          [-1, 128, 69, 69]               0
         Down2dBB-34          [-1, 128, 69, 69]               0
        Dropout2d-35          [-1, 128, 69, 69]               0
           Conv2d-36          [-1, 256, 33, 33]         819,456
      BatchNorm2d-37          [-1, 256, 33, 33]             512
           Conv2d-38          [-1, 256, 33, 33]         590,080
      BatchNorm2d-39          [-1, 256, 33, 33]             512
           Conv2d-40          [-1, 256, 33, 33]         590,080
      BatchNorm2d-41          [-1, 256, 33, 33]             512
             ReLU-42          [-1, 256, 33, 33]               0
           Conv2d-43          [-1, 256, 33, 33]         590,080
      BatchNorm2d-44          [-1, 256, 33, 33]             512
             ReLU-45          [-1, 256, 33, 33]               0
   ConvSequential-46          [-1, 256, 33, 33]               0
         Down2dBB-47          [-1, 256, 33, 33]               0
        Dropout2d-48          [-1, 256, 33, 33]               0
           Conv2d-49          [-1, 512, 15, 15]       3,277,312
      BatchNorm2d-50          [-1, 512, 15, 15]           1,024
           Conv2d-51          [-1, 512, 15, 15]       2,359,808
      BatchNorm2d-52          [-1, 512, 15, 15]           1,024
           Conv2d-53          [-1, 512, 15, 15]       2,359,808
      BatchNorm2d-54          [-1, 512, 15, 15]           1,024
             ReLU-55          [-1, 512, 15, 15]               0
           Conv2d-56          [-1, 512, 15, 15]       2,359,808
      BatchNorm2d-57          [-1, 512, 15, 15]           1,024
             ReLU-58          [-1, 512, 15, 15]               0
   ConvSequential-59          [-1, 512, 15, 15]               0
         Down2dBB-60          [-1, 512, 15, 15]               0
        Dropout2d-61          [-1, 512, 15, 15]               0
           Conv2d-62           [-1, 1024, 7, 7]       4,719,616
      BatchNorm2d-63           [-1, 1024, 7, 7]           2,048
           Conv2d-64           [-1, 1024, 7, 7]       9,438,208
      BatchNorm2d-65           [-1, 1024, 7, 7]           2,048
           Conv2d-66           [-1, 1024, 7, 7]       9,438,208
      BatchNorm2d-67           [-1, 1024, 7, 7]           2,048
             ReLU-68           [-1, 1024, 7, 7]               0
           Conv2d-69           [-1, 1024, 7, 7]       9,438,208
      BatchNorm2d-70           [-1, 1024, 7, 7]           2,048
             ReLU-71           [-1, 1024, 7, 7]               0
   ConvSequential-72           [-1, 1024, 7, 7]               0
         Down2dBB-73           [-1, 1024, 7, 7]               0
        Dropout2d-74           [-1, 1024, 7, 7]               0
           Conv2d-75           [-1, 1024, 3, 3]       9,438,208
      BatchNorm2d-76           [-1, 1024, 3, 3]           2,048
           Conv2d-77           [-1, 1024, 3, 3]       9,438,208
      BatchNorm2d-78           [-1, 1024, 3, 3]           2,048
           Conv2d-79           [-1, 1024, 3, 3]       9,438,208
      BatchNorm2d-80           [-1, 1024, 3, 3]           2,048
             ReLU-81           [-1, 1024, 3, 3]               0
           Conv2d-82           [-1, 1024, 3, 3]       9,438,208
      BatchNorm2d-83           [-1, 1024, 3, 3]           2,048
             ReLU-84           [-1, 1024, 3, 3]               0
   ConvSequential-85           [-1, 1024, 3, 3]               0
         Down2dBB-86           [-1, 1024, 3, 3]               0
        Dropout2d-87           [-1, 1024, 3, 3]               0
  ConvTranspose2d-88           [-1, 1024, 7, 7]       9,438,208
      BatchNorm2d-89           [-1, 1024, 7, 7]           2,048
           Conv2d-90           [-1, 1024, 7, 7]       9,438,208
      BatchNorm2d-91           [-1, 1024, 7, 7]           2,048
           Conv2d-92           [-1, 1024, 7, 7]       9,438,208
      BatchNorm2d-93           [-1, 1024, 7, 7]           2,048
             ReLU-94           [-1, 1024, 7, 7]               0
           Conv2d-95           [-1, 1024, 7, 7]       9,438,208
      BatchNorm2d-96           [-1, 1024, 7, 7]           2,048
             ReLU-97           [-1, 1024, 7, 7]               0
   ConvSequential-98           [-1, 1024, 7, 7]               0
           Up2dBB-99           [-1, 1024, 7, 7]               0
       Dropout2d-100           [-1, 1024, 7, 7]               0
       Dropout2d-101           [-1, 1024, 7, 7]               0
 ConvTranspose2d-102          [-1, 512, 15, 15]       9,437,696
     BatchNorm2d-103          [-1, 512, 15, 15]           1,024
          Conv2d-104          [-1, 512, 15, 15]       2,359,808
     BatchNorm2d-105          [-1, 512, 15, 15]           1,024
          Conv2d-106          [-1, 512, 15, 15]       2,359,808
     BatchNorm2d-107          [-1, 512, 15, 15]           1,024
            ReLU-108          [-1, 512, 15, 15]               0
          Conv2d-109          [-1, 512, 15, 15]       2,359,808
     BatchNorm2d-110          [-1, 512, 15, 15]           1,024
            ReLU-111          [-1, 512, 15, 15]               0
  ConvSequential-112          [-1, 512, 15, 15]               0
          Up2dBB-113          [-1, 512, 15, 15]               0
       Dropout2d-114          [-1, 512, 15, 15]               0
       Dropout2d-115          [-1, 512, 15, 15]               0
 ConvTranspose2d-116          [-1, 256, 33, 33]       6,553,856
     BatchNorm2d-117          [-1, 256, 33, 33]             512
          Conv2d-118          [-1, 256, 33, 33]         590,080
     BatchNorm2d-119          [-1, 256, 33, 33]             512
          Conv2d-120          [-1, 256, 33, 33]         590,080
     BatchNorm2d-121          [-1, 256, 33, 33]             512
            ReLU-122          [-1, 256, 33, 33]               0
          Conv2d-123          [-1, 256, 33, 33]         590,080
     BatchNorm2d-124          [-1, 256, 33, 33]             512
            ReLU-125          [-1, 256, 33, 33]               0
  ConvSequential-126          [-1, 256, 33, 33]               0
          Up2dBB-127          [-1, 256, 33, 33]               0
       Dropout2d-128          [-1, 256, 33, 33]               0
       Dropout2d-129          [-1, 256, 33, 33]               0
 ConvTranspose2d-130          [-1, 128, 69, 69]       1,638,528
     BatchNorm2d-131          [-1, 128, 69, 69]             256
          Conv2d-132          [-1, 128, 69, 69]         147,584
     BatchNorm2d-133          [-1, 128, 69, 69]             256
          Conv2d-134          [-1, 128, 69, 69]         147,584
     BatchNorm2d-135          [-1, 128, 69, 69]             256
            ReLU-136          [-1, 128, 69, 69]               0
          Conv2d-137          [-1, 128, 69, 69]         147,584
     BatchNorm2d-138          [-1, 128, 69, 69]             256
            ReLU-139          [-1, 128, 69, 69]               0
  ConvSequential-140          [-1, 128, 69, 69]               0
          Up2dBB-141          [-1, 128, 69, 69]               0
       Dropout2d-142          [-1, 128, 69, 69]               0
       Dropout2d-143          [-1, 128, 69, 69]               0
 ConvTranspose2d-144         [-1, 64, 139, 139]         147,520
     BatchNorm2d-145         [-1, 64, 139, 139]             128
          Conv2d-146         [-1, 64, 139, 139]          36,928
     BatchNorm2d-147         [-1, 64, 139, 139]             128
          Conv2d-148         [-1, 64, 139, 139]          36,928
     BatchNorm2d-149         [-1, 64, 139, 139]             128
            ReLU-150         [-1, 64, 139, 139]               0
          Conv2d-151         [-1, 64, 139, 139]          36,928
     BatchNorm2d-152         [-1, 64, 139, 139]             128
            ReLU-153         [-1, 64, 139, 139]               0
  ConvSequential-154         [-1, 64, 139, 139]               0
          Up2dBB-155         [-1, 64, 139, 139]               0
       Dropout2d-156         [-1, 64, 139, 139]               0
       Dropout2d-157         [-1, 64, 139, 139]               0
 ConvTranspose2d-158         [-1, 64, 281, 281]         204,864
     BatchNorm2d-159         [-1, 64, 281, 281]             128
          Conv2d-160         [-1, 64, 281, 281]          36,928
     BatchNorm2d-161         [-1, 64, 281, 281]             128
          Conv2d-162         [-1, 64, 281, 281]          36,928
     BatchNorm2d-163         [-1, 64, 281, 281]             128
            ReLU-164         [-1, 64, 281, 281]               0
          Conv2d-165         [-1, 64, 281, 281]          36,928
     BatchNorm2d-166         [-1, 64, 281, 281]             128
            ReLU-167         [-1, 64, 281, 281]               0
  ConvSequential-168         [-1, 64, 281, 281]               0
          Up2dBB-169         [-1, 64, 281, 281]               0
       Dropout2d-170         [-1, 64, 281, 281]               0
       Dropout2d-171         [-1, 64, 281, 281]               0
          Conv2d-172          [-1, 2, 281, 281]             258
================================================================
Total params: 149,828,226
Trainable params: 149,828,226
Non-trainable params: 0
----------------------------------------------------------------
Input size (MB): 0.30
Forward/backward pass size (MB): 1360.64
Params size (MB): 571.55
Estimated Total Size (MB): 1932.49
----------------------------------------------------------------
===================End of Net Architecture =====================
…
TrainData Input:  batchSize=8, depth=1, height=281, width=281, NumClassfication=2

TestData Input:  batchSize=8, depth=1, height=281, width=281, NumClassfication=2

Network trains from scratch.
Network has total 278275330 parameters.
Info: network dropout rate = 0.3
Infor: Cross Entropy Weight:  [1.0260619741432382, 39.37007874015748]

====================Net Architecture===========================
----------------------------------------------------------------
        Layer (type)               Output Shape         Param #
================================================================
            Conv2d-1        [-1, 128, 281, 281]           1,280
       BatchNorm2d-2        [-1, 128, 281, 281]             256
            Conv2d-3        [-1, 128, 281, 281]         147,584
       BatchNorm2d-4        [-1, 128, 281, 281]             256
              ReLU-5        [-1, 128, 281, 281]               0
            Conv2d-6        [-1, 128, 281, 281]         147,584
       BatchNorm2d-7        [-1, 128, 281, 281]             256
              ReLU-8        [-1, 128, 281, 281]               0
    ConvSequential-9        [-1, 128, 281, 281]               0
           Conv2d-10        [-1, 128, 139, 139]         409,728
      BatchNorm2d-11        [-1, 128, 139, 139]             256
           Conv2d-12        [-1, 128, 139, 139]         147,584
      BatchNorm2d-13        [-1, 128, 139, 139]             256
           Conv2d-14        [-1, 128, 139, 139]         147,584
      BatchNorm2d-15        [-1, 128, 139, 139]             256
             ReLU-16        [-1, 128, 139, 139]               0
           Conv2d-17        [-1, 128, 139, 139]         147,584
      BatchNorm2d-18        [-1, 128, 139, 139]             256
             ReLU-19        [-1, 128, 139, 139]               0
   ConvSequential-20        [-1, 128, 139, 139]               0
         Down2dBB-21        [-1, 128, 139, 139]               0
        Dropout2d-22        [-1, 128, 139, 139]               0
           Conv2d-23          [-1, 256, 69, 69]         295,168
      BatchNorm2d-24          [-1, 256, 69, 69]             512
           Conv2d-25          [-1, 256, 69, 69]         590,080
      BatchNorm2d-26          [-1, 256, 69, 69]             512
           Conv2d-27          [-1, 256, 69, 69]         590,080
      BatchNorm2d-28          [-1, 256, 69, 69]             512
             ReLU-29          [-1, 256, 69, 69]               0
           Conv2d-30          [-1, 256, 69, 69]         590,080
      BatchNorm2d-31          [-1, 256, 69, 69]             512
             ReLU-32          [-1, 256, 69, 69]               0
   ConvSequential-33          [-1, 256, 69, 69]               0
         Down2dBB-34          [-1, 256, 69, 69]               0
        Dropout2d-35          [-1, 256, 69, 69]               0
           Conv2d-36          [-1, 512, 33, 33]       3,277,312
      BatchNorm2d-37          [-1, 512, 33, 33]           1,024
           Conv2d-38          [-1, 512, 33, 33]       2,359,808
      BatchNorm2d-39          [-1, 512, 33, 33]           1,024
           Conv2d-40          [-1, 512, 33, 33]       2,359,808
      BatchNorm2d-41          [-1, 512, 33, 33]           1,024
             ReLU-42          [-1, 512, 33, 33]               0
           Conv2d-43          [-1, 512, 33, 33]       2,359,808
      BatchNorm2d-44          [-1, 512, 33, 33]           1,024
             ReLU-45          [-1, 512, 33, 33]               0
   ConvSequential-46          [-1, 512, 33, 33]               0
         Down2dBB-47          [-1, 512, 33, 33]               0
        Dropout2d-48          [-1, 512, 33, 33]               0
           Conv2d-49         [-1, 1024, 15, 15]      13,108,224
      BatchNorm2d-50         [-1, 1024, 15, 15]           2,048
           Conv2d-51         [-1, 1024, 15, 15]       9,438,208
      BatchNorm2d-52         [-1, 1024, 15, 15]           2,048
           Conv2d-53         [-1, 1024, 15, 15]       9,438,208
      BatchNorm2d-54         [-1, 1024, 15, 15]           2,048
             ReLU-55         [-1, 1024, 15, 15]               0
           Conv2d-56         [-1, 1024, 15, 15]       9,438,208
      BatchNorm2d-57         [-1, 1024, 15, 15]           2,048
             ReLU-58         [-1, 1024, 15, 15]               0
   ConvSequential-59         [-1, 1024, 15, 15]               0
         Down2dBB-60         [-1, 1024, 15, 15]               0
        Dropout2d-61         [-1, 1024, 15, 15]               0
           Conv2d-62           [-1, 2048, 7, 7]      18,876,416
      BatchNorm2d-63           [-1, 2048, 7, 7]           4,096
           Conv2d-64           [-1, 2048, 7, 7]      37,750,784
      BatchNorm2d-65           [-1, 2048, 7, 7]           4,096
           Conv2d-66           [-1, 2048, 7, 7]      37,750,784
      BatchNorm2d-67           [-1, 2048, 7, 7]           4,096
             ReLU-68           [-1, 2048, 7, 7]               0
           Conv2d-69           [-1, 2048, 7, 7]      37,750,784
      BatchNorm2d-70           [-1, 2048, 7, 7]           4,096
             ReLU-71           [-1, 2048, 7, 7]               0
   ConvSequential-72           [-1, 2048, 7, 7]               0
         Down2dBB-73           [-1, 2048, 7, 7]               0
        Dropout2d-74           [-1, 2048, 7, 7]               0
  ConvTranspose2d-75         [-1, 1024, 15, 15]      18,875,392
      BatchNorm2d-76         [-1, 1024, 15, 15]           2,048
           Conv2d-77         [-1, 1024, 15, 15]       9,438,208
      BatchNorm2d-78         [-1, 1024, 15, 15]           2,048
           Conv2d-79         [-1, 1024, 15, 15]       9,438,208
      BatchNorm2d-80         [-1, 1024, 15, 15]           2,048
             ReLU-81         [-1, 1024, 15, 15]               0
           Conv2d-82         [-1, 1024, 15, 15]       9,438,208
      BatchNorm2d-83         [-1, 1024, 15, 15]           2,048
             ReLU-84         [-1, 1024, 15, 15]               0
   ConvSequential-85         [-1, 1024, 15, 15]               0
           Up2dBB-86         [-1, 1024, 15, 15]               0
        Dropout2d-87         [-1, 1024, 15, 15]               0
        Dropout2d-88         [-1, 1024, 15, 15]               0
  ConvTranspose2d-89          [-1, 512, 33, 33]      26,214,912
      BatchNorm2d-90          [-1, 512, 33, 33]           1,024
           Conv2d-91          [-1, 512, 33, 33]       2,359,808
      BatchNorm2d-92          [-1, 512, 33, 33]           1,024
           Conv2d-93          [-1, 512, 33, 33]       2,359,808
      BatchNorm2d-94          [-1, 512, 33, 33]           1,024
             ReLU-95          [-1, 512, 33, 33]               0
           Conv2d-96          [-1, 512, 33, 33]       2,359,808
      BatchNorm2d-97          [-1, 512, 33, 33]           1,024
             ReLU-98          [-1, 512, 33, 33]               0
   ConvSequential-99          [-1, 512, 33, 33]               0
          Up2dBB-100          [-1, 512, 33, 33]               0
       Dropout2d-101          [-1, 512, 33, 33]               0
       Dropout2d-102          [-1, 512, 33, 33]               0
 ConvTranspose2d-103          [-1, 256, 69, 69]       6,553,856
     BatchNorm2d-104          [-1, 256, 69, 69]             512
          Conv2d-105          [-1, 256, 69, 69]         590,080
     BatchNorm2d-106          [-1, 256, 69, 69]             512
          Conv2d-107          [-1, 256, 69, 69]         590,080
     BatchNorm2d-108          [-1, 256, 69, 69]             512
            ReLU-109          [-1, 256, 69, 69]               0
          Conv2d-110          [-1, 256, 69, 69]         590,080
     BatchNorm2d-111          [-1, 256, 69, 69]             512
            ReLU-112          [-1, 256, 69, 69]               0
  ConvSequential-113          [-1, 256, 69, 69]               0
          Up2dBB-114          [-1, 256, 69, 69]               0
       Dropout2d-115          [-1, 256, 69, 69]               0
       Dropout2d-116          [-1, 256, 69, 69]               0
 ConvTranspose2d-117        [-1, 128, 139, 139]         589,952
     BatchNorm2d-118        [-1, 128, 139, 139]             256
          Conv2d-119        [-1, 128, 139, 139]         147,584
     BatchNorm2d-120        [-1, 128, 139, 139]             256
          Conv2d-121        [-1, 128, 139, 139]         147,584
     BatchNorm2d-122        [-1, 128, 139, 139]             256
            ReLU-123        [-1, 128, 139, 139]               0
          Conv2d-124        [-1, 128, 139, 139]         147,584
     BatchNorm2d-125        [-1, 128, 139, 139]             256
            ReLU-126        [-1, 128, 139, 139]               0
  ConvSequential-127        [-1, 128, 139, 139]               0
          Up2dBB-128        [-1, 128, 139, 139]               0
       Dropout2d-129        [-1, 128, 139, 139]               0
       Dropout2d-130        [-1, 128, 139, 139]               0
 ConvTranspose2d-131        [-1, 128, 281, 281]         819,328
     BatchNorm2d-132        [-1, 128, 281, 281]             256
          Conv2d-133        [-1, 128, 281, 281]         147,584
     BatchNorm2d-134        [-1, 128, 281, 281]             256
          Conv2d-135        [-1, 128, 281, 281]         147,584
     BatchNorm2d-136        [-1, 128, 281, 281]             256
            ReLU-137        [-1, 128, 281, 281]               0
          Conv2d-138        [-1, 128, 281, 281]         147,584
     BatchNorm2d-139        [-1, 128, 281, 281]             256
            ReLU-140        [-1, 128, 281, 281]               0
  ConvSequential-141        [-1, 128, 281, 281]               0
          Up2dBB-142        [-1, 128, 281, 281]               0
       Dropout2d-143        [-1, 128, 281, 281]               0
       Dropout2d-144        [-1, 128, 281, 281]               0
          Conv2d-145          [-1, 2, 281, 281]             514
================================================================
Total params: 278,275,330
Trainable params: 278,275,330
Non-trainable params: 0
----------------------------------------------------------------
Input size (MB): 0.30
Forward/backward pass size (MB): 2707.52
Params size (MB): 1061.54
Estimated Total Size (MB): 3769.36
----------------------------------------------------------------
===================End of Net Architecture =====================
…
